kitsune.pt (torch, 101623 bytes, 52 tensors)

running_sum f8 [100]
0	0x410a835d15800000	217195.63549804688
1	0x4160238f9d000000	8461436.90625
2	0x41dc2b6787480000	1890426397.125
3	0x411335236ed80000	314696.8582458496
4	0x4160214207f00000	8456720.248046875
5	0x41de7b9ed5a00000	2045672278.5
6	0x4125c895b8000000	713802.859375
7	0x41600f1bcdf00000	8419550.435546875
8	0x41e17dbda4900000	2347625764.5
9	0x4147dfda02500000	3129268.0180664062
10	0x4160146357700000	8430362.732421875
11	0x41e564ff6f300000	2871524217.5
12	0x4161e6935ce80000	9385114.903320312
13	0x416080b4aad80000	8652197.338867188
14	0x41eac8e33bf00000	3594983903.5
15	0x410a8a1451500000	217410.53970336914
16	0x416024faf3400000	8464343.6015625
17	0x41dc480227e00000	1897924767.5
18	0x41e86d78c2b00000	3278620181.5
19	0x416920f0fcb00000	13174663.896484375
20	0xc1a6a46440c08000	-189936160.37597656
21	0xc19418053d82ada0	-84279631.37761545
22	0x41133a907fa80000	315044.12466430664
23	0x416022db9fa00000	8459996.98828125
24	0x41de9e42d8980000	2054753122.375
25	0x41ea344547800000	3517065788.0
26	0x4169220bc6700000	13176926.201171875
27	0xc1ae1c23021b0000	-252580225.05273438
28	0x4142596bc9974000	2405079.5749282837
29	0x4125d024d1800000	714770.4091796875
30	0x4160116b0c500000	8424280.384765625
31	0x41e194ec17f00000	2359779519.5
32	0x41edbd29c1000000	3991490056.0
33	0x4169088bc6400000	13124702.1953125
34	0xc1b52bd714300000	-355194644.1875
35	0x413dfc04ba6dac00	1965060.72823596
36	0x4147f32718d00000	3139150.1938476562
37	0x416017758be00000	8436652.37109375
38	0x41e58fd0eef80000	2893973367.75
39	0x41f15e0f17980000	4662030713.5
40	0x4168f69274100000	13087891.626953125
41	0xc1b84a5dced80000	-407526862.84375
42	0x4107d96048f2c000	195372.03561925888
43	0x41620f177f380000	9468091.975585938
44	0x4160831fd6100000	8657150.689453125
45	0x41eb1aa0dc600000	3637839587.0
46	0x41f4c7c4f2600000	5578182438.0
47	0x4168b8764f200000	12960690.47265625
48	0xc1be0e69d5000000	-504261077.0
49	0xc0a3b021bf500000	-2520.0659127235413
50	0x4109681f18900000	208131.8869934082
51	0x40ea00b534f00000	53253.66271209717
52	0x4133c6f0dc221800	1296112.8598952293
53	0x4112580e19c80000	300547.52517700195
54	0x40eaa49ade960000	54564.83967113495
55	0x413745081f4ee000	1525000.122297287
56	0x4124a37efcf80000	676287.4940795898
57	0x40ecb92d9b000000	58825.42517089844
58	0x413ee927290d0000	2025767.1603546143
59	0x4145351cce080000	2779705.6096191406
60	0x40ef203224400000	63745.56692504883
61	0x4148871dbf400000	3214907.494140625
62	0x415b1fdcf0280000	7110515.752441406
63	0x40e5a39b99280000	44316.8624458313
64	0x414ab28c9a1a0000	3499289.203918457
65	0x41095b573a900000	207722.9035949707
66	0x41602766ec880000	8469303.391601562
67	0x41d8d66d91280000	1666823748.625
68	0x41e5737815580000	2879111338.75
69	0x4169264671600000	13185587.54296875
70	0xc1a766ec15c20000	-196310538.87890625
71	0xc1a225475c8720a0	-152216494.26392078
72	0x41124bca18b80000	299762.5241394043
73	0x416022de5be80000	8460018.872070312
74	0x41dae37a1d080000	1804462196.125
75	0x41e7069fbb100000	3090480600.5
76	0x416922da33a00000	13178577.61328125
77	0xc1af039f28ff0000	-260165524.49804688
78	0xc18abda70a3d9e80	-56079585.28008747
79	0x41249250e7380000	674088.4515991211
80	0x415ff691b8f00000	8378950.8896484375
81	0x41deb8ac0d200000	2061676596.5
82	0x41ea0a5e79400000	3495097290.0
83	0x4168efd24f800000	13074066.484375
84	0xc1b5c7795de20000	-365394269.8828125
85	0xc13c448553a18000	-1852549.3266830444
86	0x41452244b4800000	2770057.41015625
87	0x415f92d203900000	8276808.0556640625
88	0x41e18e503ff00000	2356314623.5
89	0x41ec7058b8600000	3816998339.0
90	0x41689eeefcc00000	12908407.8984375
91	0xc1b815bb76d00000	-404077430.8125
92	0xc0a352adc4700000	-2473.3393893241882
93	0x415aacffb6700000	6992894.8505859375
94	0x416027eb50780000	8470362.514648438
95	0x41e2cfb55fa80000	2524818173.25
96	0x41ecf65e4e600000	3887264371.0
97	0x4168eed35b800000	13072026.859375
98	0xc1be54073e480000	-508823358.28125
99	0xc0a4ac6a1c500000	-2646.2072472572327

running_residuals f8 [100]
0	0x40a30b08d0bac155	2437.5172174798013
1	0x40e2ca9d6a225089	38484.9192058156
2	0xc15152f76686eb08	-4541405.601984747
3	0x40ae8149b276334f	3904.6439396798737
4	0x40e10e73f95b9f88	34931.624189197144
5	0xc159e13541227054	-6784213.017726976
6	0x40bf6e471850af50	8046.277714770127
7	0x40e435c285049104	41390.078737529024
8	0xc14da96418ed7c92	-3887816.194747516
9	0x4100870a554a92e0	135393.29164614435
10	0x40ed39ddc96bd8d7	59854.930837558284
11	0x41755ed28b047c76	22408488.688595258
12	0x41310a729161c329	1116786.567897985
13	0x41072aed77e06e10	189789.68353353487
14	0x416847c04ad83a3b	12729858.338894954
15	0x40a2cd130269b320	2406.537127783886
16	0x40e131392c6cbba2	35209.78667294166
17	0xc155ccb0e51eec0c	-5714627.580012333
18	0xc16f01f8a1dd9ae2	-16256965.058301393
19	0x40d9a90113c04fa0	26276.016830518492
20	0x4150d8a5ddd50931	4416151.46612768
21	0x41821d6b6e68921d	37989741.80105994
22	0x40ae2976025beac2	3860.73048674813
23	0x40dde0e75e438ff8	30595.615128412814
24	0xc160f1dc66c74f76	-8883939.211829882
25	0xc1735d3bb1c06c11	-20304827.10947806
26	0x40da6bf5cb90ce67	27055.84054966122
27	0x4159a9c1eb8b01bc	6727431.6803593
28	0x41714e6652b37f96	18146917.168822847
29	0x40bef47be4143a88	7924.483948959627
30	0x40e143df92d56d5a	35358.98667403562
31	0xc155ba151636fb40	-5695572.347105801
32	0xc1680746947c8847	-12597812.6402017
33	0x40e5af5145aa17be	44410.5397539581
34	0x415afc43b34063fd	7074062.800805089
35	0x4128c69307c0ece6	811849.5151437789
36	0x410072f4b991f2c0	134750.59061040543
37	0x40eba173f0fa11ba	56587.62316611731
38	0x41724e3af122c236	19194799.070985995
39	0x417dd20a9a5d9d74	31269033.647855237
40	0x40f11f8545249485	70136.32938058868
41	0x415066270f5c05f6	4298908.239991656
42	0x40f0860149fb6cc6	67680.08056204309
43	0x413109120a6532c1	1116434.0406066629
44	0x41066df1b1116ce1	183742.2114590174
45	0x4161d7db9e26ae0c	9354972.942221664
46	0xc165ee79de193ac0	-11498446.940579772
47	0x411112373f1ae4ec	279693.81162603083
48	0xc17407af22e324b7	-21002994.180454936
49	0xc039b45c20364924	-25.70453072858176
50	0x40a9096773eac6c6	3204.702056252255
51	0xc09cb6dc40443bc8	-1837.7150889073837
52	0xc0f258e8534d3c8e	-75150.52033733038
53	0x40b406e01f3e99a7	5126.875476753724
54	0xc09c7a2d7d4553c2	-1822.5444231827137
55	0xc0f9a28387cf52a5	-105000.22065670283
56	0x40c5b7c8999142dd	11119.567186505936
57	0xc09ff20dd4dfadf4	-2044.5135073614047
58	0xc10744700fbff6ea	-190606.007690362
59	0x40ff381d2010c6df	127873.82032849964
60	0xc0a823f2ab6ef40e	-3089.973964183132
61	0xc1160434a28d3ee3	-360717.1587419344
62	0x412ca71cd17c6fb9	938894.4091524995
63	0xc0a2238fe55638ca	-2321.7810465759585
64	0xc11ed585f04445f4	-505185.4846354418
65	0x40a8fa986bcf7b1a	3197.2976975286265
66	0x40ea5d770684210c	53995.719545425934
67	0x41557ff72ceabcce	5636060.701827241
68	0xc14f4c673d8f390f	-4102350.4809333156
69	0x40e12862524395a8	35139.07254199247
70	0x4155cd65ee5add76	5715351.724295964
71	0x417b8fa132a605f7	28899859.165533032
72	0x40b3f1532eb51e08	5105.32493144973
73	0x40e7ff8cf60bbdb4	49148.40503489543
74	0x41511a53769e1f64	4483405.853401039
75	0xc154dbfe453ecbf5	-5468153.081957807
76	0x40e31af234d405d1	39127.56894875656
77	0x415edd3e75eed776	8090873.842702737
78	0xc170e245311ff631	-17704019.070303146
79	0x40c5a711fab627f0	11086.14046360922
80	0x40e9101d7b8d8942	51328.92133213814
81	0x415a3a8409e19e28	6875664.154395618
82	0x4128658385c54f82	799425.7612709852
83	0x40e9b2948e69cac7	52628.64238442998
84	0x415dd84f4af671d6	7823677.171291789
85	0xc10ee819f1dfe587	-253187.2431028301
86	0x40ff0d777b9822cc	127191.467674385
87	0x40eaae51f0ea8352	54642.5606586995
88	0x41785fca4a0ca70f	25558180.628089007
89	0x418011cb99f5015b	33700211.24463149
90	0x40e3b7888f48044d	40380.267490394974
91	0x415e54afbcf4064c	7951038.952394079
92	0x404ff9f89ec68c24	63.9528997868986
93	0x412cecc1e3c26dff	947808.9448427557
94	0x40fe1ab8b9db7757	123307.54537531488
95	0x41768a7e54af2823	23635941.292762887
96	0x410644517a1e4166	182410.18462802022
97	0x41009e84db61bf0a	136144.60712002992
98	0xc17074fe2c7de033	-17256418.78073139
99	0xc04112399715a481	-34.142382512633965

running_squared_residuals f8 [100]
0	0x4145f07a4024142c	2875636.5011010375
1	0x41ea0d22a90bd66e	3496547656.3699255
2	0x42f8783ac5c6eeed	430474578915054.8
3	0x4156714c1d18b593	5883184.454633134
4	0x41e8e87f08e474f0	3343120455.1392746
5	0x42f947a3af2f4420	444727672632386.0
6	0x417a0fff4ad09825	27328500.675926346
7	0x41e6a0f2f85b243f	3037173698.8481746
8	0x42f9640dc3cae620	446680293748322.0
9	0x41bb54da0ab377b3	458545674.7010452
10	0x41e2bd71da89652e	2515242708.293601
11	0x42f83f7ac1e2151f	426574744527185.94
12	0x41f0a164f6e0b377	4464201582.043815
13	0x41dbab68629cbb4f	1856872842.4489324
14	0x42f73d9c3396e6e1	408854097129070.06
15	0x4145ea1692060144	2872365.1408082563
16	0x41ea001c0bbee952	3489718365.9659815
17	0x42f87ca043bf6804	430776700892800.25
18	0x42fd865fe0c4f798	519407542226809.5
19	0x41e536e904868b4d	2847361060.2045045
20	0x42b8c08a4e8c272f	27215233190951.184
21	0x432021e4050cf53d	2270431424182942.5
22	0x4156697d93756f8f	5875190.304042711
23	0x41e8d900485b2a51	3334996546.8489156
24	0x42f94aec89fb351c	444953387840337.75
25	0x42fd3f91407b6240	514541713077796.0
26	0x41e3dc437fcde9f8	2665618430.4348106
27	0x42c03e428b84e7f0	35719180913103.875
28	0x4311e69df220023e	1259660162629775.5
29	0x417a027090840e72	27272969.03224034
30	0x41e68bd67f4b50a2	3026105338.353593
31	0x42f95de5556a0c4d	446257123729604.8
32	0x42f9441d24e8571c	444485398857073.75
33	0x41e11ee8ba164ddd	2297906640.697005
34	0x42c23957d9bc3b6d	40074992646262.85
35	0x426a9194dcd93060	912892815049.5117
36	0x41bb444203c457dd	457458179.7669657
37	0x41e2934457ad3964	2493129405.4132557
38	0x42f83228f36cf892	425659431571337.1
39	0x42f25d0c614afe33	323053583380451.2
40	0x41d736544b2d80e2	1557745964.7109914
41	0x42b55a886159faf8	23478579321338.97
42	0x4203aafbadf02e6e	10559124926.02267
43	0x41f09045ba216b9a	4446247842.08877
44	0x41db155059158722	1817526628.3363729
45	0x42f6f40a26078522	403798369531986.1
46	0x42e39a3881720139	172424751190025.78
47	0x41c5ee4e568b953f	735878317.0904921
48	0x42ade4732c5eaed1	16433511018327.408
49	0x406f6a2976700da8	251.3175613583128
50	0x41460a04c8dd8954	2888713.5692607556
51	0x41452e6faa0267b6	2776287.3281983985
52	0x42145db1b81a8143	21867818502.626232
53	0x4156970395914dfa	5921806.336993689
54	0x41456fd613b75046	2809772.154031786
55	0x42179ca92a9b30b8	25353144998.797577
56	0x417a49b6a997702e	27564906.599472217
57	0x4146782e0b4c593d	2945116.088267474
58	0x421c478f11cc7dc2	30364910707.12281
59	0x41bb08e139119d27	453566777.0688042
60	0x41489df98c744d3c	3226611.097299246
61	0x421f9fb9a36311a0	33955932376.767212
62	0x41ec681f7955fa9e	3812686794.686843
63	0x41389a3ddf69c948	1612349.8727079201
64	0x4215803a45fa1879	23086403966.5239
65	0x4145d299bd4d58df	2860339.478922948
66	0x41ebb856b57b6a1a	3720525227.856702
67	0x42f6946036f48cae	397224402962634.9
68	0x42fe23b47a8ea9a3	530219209910938.2
69	0x41e8397c087ea542	3251363907.957673
70	0x42bb28c9d238a142	29861998639265.258
71	0x4322f8d79dd45bb0	2670077265194456.0
72	0x41565c95a62c1710	5861974.596441045
73	0x41eaa761d3c9be41	3577417374.3044744
74	0x42f7556980b71926	410489755234706.4
75	0x42fe2df0271108ec	530922423259278.75
76	0x41e71a5792cb544a	3100818582.354039
77	0x42c22ce1e9d8b2d9	39967956119909.695
78	0x42fc5d786779fa2f	499004441337762.94
79	0x417a144097220fb5	27345929.44581576
80	0x41e867df0ebebf85	3275683957.960879
81	0x42f71bad3d977221	406522208810786.06
82	0x42faba1638b3d5a7	470184624864602.44
83	0x41e4b93655d3a64f	2781459118.6140513
84	0x42c45f7935595989	44800575976115.07
85	0x426333983ae8af6a	659759945541.4817
86	0x41baeaa796f5dfc4	451585942.96044564
87	0x41e5b6a9e077a6a0	2914340611.73909
88	0x42f4aca4dc157e2c	363707725076450.75
89	0x42f58ebe4a3c22e6	379245153206830.4
90	0x41e1d9f10c2ca075	2395965537.394587
91	0x42b8ad2886ad7f75	27131988323711.457
92	0x407aefb0b6fc4bfd	430.9806432586045
93	0x41ec478679791379	3795596235.783627
94	0x41e4f7271306a8bd	2813933720.208098
95	0x42f1e8c44a78e47a	315062772796999.6
96	0x42f3f9d32959e46a	351419367792198.6
97	0x41e18af0d5f0f690	2354546351.530098
98	0x42b3209b6797d3b8	21030767138771.72
99	0x4077a4fdfe18cdc9	378.3120099038029

running_corr_mat f8 [100, 100]
0	0x4145f07a4024142b	2875636.501101037
1	0x417fe61c6ed56502	33448390.92709828
2	0x41ff50db3284887f	8406283048.283324
3	0x414edbafecb6396d	4044639.849311045
4	0x417f6d2decac282b	32953054.792030495
5	0x41ff38296889f40d	8380389000.622083
6	0x415db6d26e03bc4b	7789385.718977998
7	0x417d0951d56facf0	30446877.339764535
8	0x41fefd9712fe41c9	8318972207.891061
9	0x41760e7233b7a8ea	23127843.232338823
10	0x41746884b31ffc87	21399627.19530919
11	0x41fd86777dc6f6df	7925626844.435271
12	0x4181b9f68ec51888	37174993.846238196
13	0x4164d3100142026d	10918016.039307797
14	0x41f0ba8aa82db391	4490570370.856339
15	0x4145ebe386be6584	2873287.0526854414
16	0x417fd5c20ffc2262	33381408.999056228
17	0x41fefe37b0535fda	8319630085.210901
18	0x42050d347be4636b	11301982076.548544
19	0x4183a6915dff3cdc	41210411.7496278
20	0xc1eb2eec16cba8b9	-3648479414.364346
21	0x41d0086c1330f304	1075949644.7648325
22	0x414ed46fc91cd628	4040927.5711925216
23	0x417f5a799286035a	32876441.15771804
24	0x41fed29c69748896	8273905303.283346
25	0x4204ab164ec4fcff	11096213976.623533
26	0x4183eb3841c7863c	41772808.222424
27	0xc1eec45664b9b1c3	-4129469221.8029494
28	0xc189e62453f59b23	-54314122.494924806
29	0x415dac6fdd89b705	7778751.461530452
30	0x417cee23ce6e0f04	30335548.90186979
31	0x41fe78416ce2c4c2	8179160782.173037
32	0x42057bc7915abba4	11533873707.341621
33	0x418363af1a6ce1ef	40662499.30316531
34	0xc1f193f7e379d601	-4718558775.614747
35	0xc1793338d4bd4714	-26424205.296210364
36	0x4175f9cb2377971b	23043250.21669684
37	0x417417c167089153	21068822.439591717
38	0x41fcc6151102f2f6	7723897104.184317
39	0x4203daec029c2433	10659659859.517675
40	0x417d7438b7cc1613	30884747.48732574
41	0xc1eb909a8fe0526c	-3699692671.0100613
42	0xc14426d395810584	-2641319.167999925
43	0x418165d563028b0d	36485804.37624178
44	0x41638d3445a14e6d	10250658.175940717
45	0x41ee55b6d33f7548	4071470745.9830666
46	0x41f346783e4da898	5174166500.853661
47	0x416fa359ab3f5716	16587469.351481955
48	0xc1ebbcb8683fe85c	-3722822465.997114
49	0xc0cba00f47b09b2e	-14144.119375301143
50	0x41459e8a82dbfbbd	2833685.022338359
51	0xc123ebf1784f46a7	-652792.7349798278
52	0xc164a55675da2851	-10824371.682880552
53	0x414e6c3a2dcd1235	3987572.357820774
54	0xc1243a9816869973	-662860.043995662
55	0xc16686cd781b1032	-11810411.753303621
56	0x415d5c87cee6a41b	7696927.232827212
57	0xc125815bb188ebcb	-704685.8467477498
58	0xc16b2ff119be63e6	-14253960.804490995
59	0x4176763285558f62	23552808.333388694
60	0xc12691368377ad10	-739483.2567724306
61	0xc17277780330e5ac	-19363712.199437782
62	0x4184b9dcc4685337	43465624.55093997
63	0xc11d20b42f9a01c5	-477229.04648592725
64	0xc17659177fd88738	-23433591.99036333
65	0x41457bc589d983b2	2815883.0769505138
66	0x417fbc4caa5bf860	33277130.647453666
67	0x420017fad07f4ae2	8640223759.911564
68	0x42083f26f2734141	13017341518.406862
69	0x41841fafcafd4816	42202617.37367265
70	0xc1ec49882fa099ed	-3796648317.01879
71	0x41dce5966990a07f	1939233190.259796
72	0x414e3a07d71d5f8e	3961871.680583901
73	0x417f33068570c2fa	32714856.340029694
74	0x4200441f4c16ece4	8732797314.86567
75	0x420846ef4b867f8e	13033662832.812283
76	0x41847631fe8c9922	42911295.81865145
77	0xc1f012248c3fab44	-4313991363.979313
78	0x41c59c489cabda8e	725127481.3426073
79	0x415d2ded1febcc29	7649204.498766937
80	0x417d0a43a2efcb47	30450746.18354347
81	0x4200d281091ca92c	9031393571.582603
82	0x4209fce2daaf454b	13952113493.908834
83	0x41844c21f7b8ed53	42566718.96529641
84	0xc1f244af5d88bdae	-4903859672.5463085
85	0x4176f7c7cb7eb5a6	24083580.718434952
86	0x417655f7700e9fa5	23420791.003570218
87	0x4177fbd9412702c6	25148820.07202413
88	0x4201a27e4744cd92	9467578600.600376
89	0x42098c9ffe18289c	13716684739.019829
90	0x4183172b4806fffd	40035689.00341795
91	0xc1eae0564b5df88f	-3607278170.9365916
92	0xc0ce841991f469af	-15624.199766685108
93	0x41844ed8712b2c8c	42588942.14608106
94	0x417672e6cf8060ae	23539308.9688422
95	0x4201e5d1bccca957	9608771481.582685
96	0x42096295896b0c22	13628518701.380924
97	0x41825a74d642f615	38489754.78269593
98	0xc1eb530a692ef7eb	-3667415881.4677634
99	0xc0cd0ed739f34a36	-14877.681456004368
100	0x417fe61c6ed56502	33448390.92709828
101	0x41ea0d22a90bd66f	3496547656.369926
102	0x42623bd49f25d51b	626505611566.6595
103	0x418830a552b054bf	50730154.33609914
104	0x41e952534af996f6	3398605399.799678
105	0x4263d2dd34206171	681136726275.045
106	0x419c3f58f62e0658	118478397.54494607
107	0x41e740f33ed863d0	3121060342.762184
108	0x4266efccc73378cd	788099643803.775
109	0x41c0e779404b7c11	567210624.5897237
110	0x41e31189311d606e	2559330696.918021
111	0x426a51b2edc97161	904318643787.5431
112	0x41d51c456070ba92	1416697217.7613873
113	0x41dc11ca2448d5fd	1883711633.1380608
114	0x4266bfae039d348e	781641063657.6423
115	0x417fd5bfa101f470	33381370.062977254
116	0x41e9fe9295416381	3488912554.0433965
117	0x4262444b8221e266	627641684239.075
118	0x42405cd987f2b9fa	140554473445.45294
119	0x41d87c0f285cf6be	1643134113.45256
120	0xc2247a50d122a4e4	-43975731345.32205
121	0x4222512b87af73ae	39335609303.72594
122	0x418823c350c95706	50624618.098310515
123	0x41e940f79d6a415a	3389504747.3204775
124	0x4263daa318c203b9	682180003344.1163
125	0x4245be3c44f45284	186771868136.64465
126	0x41d771158aab09aa	1573148202.6724648
127	0xc22b68a3ac3ea8c6	-58859836959.329636
128	0xc1cc239b588749c9	-944191153.0569392
129	0x419c2e5aa97d2d8a	118199978.37224403
130	0x41e72a09fb4960f6	3109048282.293086
131	0x4266f1e960a7ada0	788383073597.4258
132	0x4250baa51654ce81	287403432275.2266
133	0x41d49610480b8d6e	1381515552.1805072
134	0xc23430f855e5d107	-86720927205.81651
135	0xc1cbe60d2c1e61ca	-936122968.2373593
136	0x41c0d99ec6b5715d	565394829.4175221
137	0x41e2e633a5dae74c	2536611118.8407345
138	0x426a392c4fecf695	901026840423.7057
139	0x425390499c3da374	336100487414.55396
140	0x41cb2b0d7a6d42aa	911612660.8535969
141	0xc23386d785f49a49	-83866650100.60268
142	0xc194ad6725dca3fd	-86727113.46546932
143	0x41d4e1b08fcf9013	1401340479.2431686
144	0x41db757d2bd2f19e	1842738351.2959971
145	0x426669b1c77a698a	770100313043.2981
146	0x424223469bd540f0	155802482602.50732
147	0x41b7cd6d0647b1d5	399338758.28005725
148	0xc231c975b0f9cad0	-76394377465.79224
149	0xc112018a8dd63268	-295010.6385124088
150	0x417dfad04108c416	31436036.064640127
151	0xc17136ef5be2a02a	-18050805.742828526
152	0xc1b1ddd2b451d49c	-299750068.3196504
153	0x418682ee52089903	47209930.2541981
154	0xc171769b14ad6207	-18311601.292329814
155	0xc1b2d09eaa448a09	-315661994.26773125
156	0x4199bd2c4612061f	107957009.51760148
157	0xc17284243d191ce0	-19415619.818631053
158	0xc1b4190a0ac5404a	-337185290.7705122
159	0x41be46483498f7d5	507922484.5975316
160	0xc173142e1dbef274	-20005601.85911794
161	0xc1ba5faca4148363	-442477732.0801298
162	0x41d1d2e19b48c1a6	1196131949.1368194
163	0xc168bbb55c9dce64	-12967338.894263454
164	0xc1c0577a90ddeedb	-548336929.7338518
165	0x417d9e6a53e8f683	31057573.244375717
166	0x41ea129f797f1849	3499424715.9717145
167	0x425f4b19e38e29ea	537615896120.6549
168	0x423d0f9ee90deb7a	124816124173.91983
169	0x41d89a4197519537	1651050077.2747324
170	0xc224e3f781e965f0	-44861997300.6991
171	0x4230967fa03b0270	71244423227.00952
172	0x418646aa500abe72	46716234.00524606
173	0x41e96d2753f8dfd7	3412671135.777324
174	0x426121dfe161892d	588662115084.2867
175	0x424419dd1debcb11	172666534871.58646
176	0x41d7cd6f2fd204cc	1597357247.2815428
177	0xc22c0cdda7c817b9	-60237468644.04633
178	0x4218ae6268878eda	26501224993.889503
179	0x41998fa2721f40f4	107210908.53052121
180	0x41e7a4f16ee79d4c	3173485431.2379513
181	0x4264817633e14d31	704570826506.4122
182	0x4250fd4e0aeb65a8	291876907949.5884
183	0x41d5c1edda4c3bdf	1460123497.1911542
184	0xc2347eafa3942ca3	-88024785812.17436
185	0x41ca0352c6d7b82c	872850829.685308
186	0x41be27da85c2c832	505928325.76086724
187	0x41e529a68e3cb499	2840409201.8970456
188	0x426803a5e8258db4	825123356972.4282
189	0x4256c30b5a5b4abe	391046326637.16785
190	0x41d2689b390e3cf3	1235381476.22247
191	0xc233cb82752db7ac	-85018703149.71747
192	0xc114f1bbd04445ce	-343150.9533854396
193	0x41d1036d4c10a261	1141749040.2599108
194	0x41e43de28e3c72aa	2716800113.888997
195	0x4266279d92585ffe	761231348418.9998
196	0x4256a18ffbf2c950	388799393739.1455
197	0x41d13186a120a74a	1153833604.5102105
198	0xc232b3a81e5a882c	-80323550810.53192
199	0xc1138ba89884dd55	-320234.14894433814
200	0x41ff50db3284887f	8406283048.283324
201	0x42623bd49f25d51b	626505611566.6595
202	0x42f8783ac5c6eeed	430474578915054.8
203	0x420755d893bd6a7d	12528063095.676996
204	0x426293009face5c0	638205623655.1797
205	0x42f86acca1b8a0ce	429551660009996.9
206	0x421af4f6cc98c20b	28944741158.189495
207	0x4262ce48f0c2f410	646162384407.627
208	0x42f606143ccf7502	387445842310992.1
209	0x42395dfa07f1ed47	108950849521.92686
210	0x4261e19070bf2a9f	614390269433.3319
211	0x42f12ac6d2ec0827	302006752166018.44
212	0x42504f139eaef73e	280184650427.86316
213	0x425a9c88c80a423e	457181437993.03503
214	0x42eac449ccf1d09d	235442832641668.9
215	0x41ff3f27a677ba0a	8387721831.48292
216	0x426231a7a98c4eb5	625139862626.4596
217	0x42f872e1006dd927	430106883841426.44
218	0x42f1530dcb336472	304774582056519.1
219	0x42450f50189e7534	180902441276.91565
220	0xc2c0650178470be4	-36052004802071.78
221	0x42a3bf4d9a71e709	10856180824307.518
222	0x4207482364cefb4c	12499315865.872704
223	0x42628825ec267bac	636748783923.8647
224	0x42f862d08d8f77d3	429002956797821.2
225	0x42f0ec3f3347f18a	297709738426136.6
226	0x4246f26ee5124dcc	197113268772.6078
227	0xc2c168a4de86d70d	-38282280635822.1
228	0xc25129ae5ccc0bd0	-294854947632.1846
229	0x421ae1667b461240	28862684881.517822
230	0x4262c1f579c47111	644508012067.5333
231	0x42f5f8dcafaacb55	386537577163957.3
232	0x42eb39bb28798670	239478136622131.5
233	0x424a94d012acaa66	228331627865.33124
234	0xc2b6781149457451	-24704941901172.316
235	0xc24e9658ea2178f9	-262742856770.9451
236	0x42393c56f435b53f	108386513973.708
237	0x4261c4d0f110cf3f	610531772550.4764
238	0x42f1166487fd043a	300605977382979.6
239	0x42e10efb18de18f3	150048319402183.6
240	0x424aa3b9fbea104f	228832049108.1274
241	0xc29f4f7ed37f44f6	-8606572666833.24
242	0xc2162ac66b383674	-23801731790.053177
243	0x425004d497f940c1	275202072549.0118
244	0x425a28f3dccfdacf	449424880447.4189
245	0x42ea573b70445bac	231695693521629.38
246	0x42d0ac2bdebf563d	73326625750360.95
247	0x423922926fadb9f8	107954204589.72644
248	0xc2a48cd65e62302b	-11297562243352.084
249	0xc18d85398b407ae0	-61908785.406484365
250	0x41f8e1e6bd97dbbd	6679325657.491147
251	0xc1f5c6b98016a90c	-5845522433.416271
252	0xc231f6af841757c6	-77153141783.34286
253	0x42024b42640a536e	9821506689.290737
254	0xc1f60b9cc3a23708	-5917756474.138435
255	0xc232a7a49b47e8b7	-80121994055.90904

tails.0.w f4 [6, 2]
0	0x3d121037	0.035659995
1	0xbdd68130	-0.10473859
2	0x3de3efb9	0.11129708
3	0x3e231ccf	0.15928958
4	0x3d6fd8ae	0.05855625
5	0x3d8e1c56	0.069389984
6	0x3e25f466	0.16206512
7	0x3d70ec9a	0.05881939
8	0x3c71dd99	0.014762306
9	0x3de13979	0.1099729
10	0x3d81c451	0.063362725
11	0x3db12497	0.08649557

tails.0.hidden_bias f4 [2]
0	0xbb40f5fd	-0.0029443495
1	0xbb213a24	-0.0024601305

tails.0.reconstruct_bias f4 [6]
0	0xbcfbdcc9	-0.030744927
1	0xbd097b4a	-0.033564843
2	0xbcf8914e	-0.030342724
3	0xbd021a74	-0.03176351
4	0xbcebe506	-0.02879573
5	0xbcf7938f	-0.030221729

tails.1.w f4 [7, 2]
0	0xbd973480	-0.073830605
1	0xbdeba47a	-0.11505981
2	0x3dab7122	0.08371188
3	0x3dadba9d	0.08482859
4	0x3c19f2e5	0.0093962895
5	0x3b48550e	0.0030568275
6	0x3d6e4fe8	0.058181673
7	0x3de55c67	0.11199265
8	0xbdc6f007	-0.0971375
9	0x3de6ce9a	0.11269875
10	0x3d3d1ac1	0.046168093
11	0xbd7ac251	-0.06122047
12	0x3de2f319	0.110815234
13	0xbdcdbdb7	-0.10045951

tails.1.hidden_bias f4 [2]
0	0xb9fabf4c	-0.00047826243
1	0x397e1c6c	0.00024233916

tails.1.reconstruct_bias f4 [7]
0	0xbd01012e	-0.031495266
1	0xbcd1d14e	-0.0256125
2	0xbcedc214	-0.029023208
3	0xbcd6ba7e	-0.026211973
4	0xbcec922c	-0.028878294
5	0xbd0100da	-0.031494953
6	0xbd009d23	-0.031399857

tails.2.w f4 [5, 2]
0	0x3d0da173	0.034577798
1	0x3e23d686	0.15999803
2	0xbe01f552	-0.12691239
3	0x3e2cdf4b	0.16882055
4	0xbe28677f	-0.1644573
5	0xbc8a7342	-0.016900662
6	0xbcb710b5	-0.022346834
7	0x3d5786f8	0.05261895
8	0x3e3e85d1	0.18605734
9	0xbbf486ab	-0.0074623427

tails.2.hidden_bias f4 [2]
0	0x3a91792e	0.0011098736
1	0xbbf28a8f	-0.0074017714

tails.2.reconstruct_bias f4 [5]
0	0xbc330ca7	-0.0109283095
1	0xbc4ea49f	-0.012612491
2	0xbc986834	-0.018604375
3	0xbcb2e63c	-0.0218383
4	0xbcaa21f3	-0.020768141

tails.3.w f4 [6, 2]
0	0xbd9d52b1	-0.07681788
1	0xbd93eb63	-0.07222631
2	0x3dbd8841	0.09254504
3	0xbdca12a0	-0.09866834
4	0x3daeb42c	0.08530459
5	0xbe0f5c22	-0.1399999
6	0x3e03c7ae	0.1286914
7	0xbd3abcd2	-0.04559023
8	0xbd97cac8	-0.07411724
9	0x3dcfa22b	0.10138353
10	0x3e219af0	0.1578176
11	0xbdbe46d7	-0.092908554

tails.3.hidden_bias f4 [2]
0	0xbb6cadd1	-0.0036114345
1	0x3b748af9	0.003731428

tails.3.reconstruct_bias f4 [6]
0	0xbd169fb7	-0.03677341
1	0x3c1063cb	0.008812855
2	0x3c3ac104	0.011398558
3	0xbc284f89	-0.010272869
4	0xbcb822be	-0.022477504
5	0xbca8c724	-0.02060277

tails.4.w f4 [7, 2]
0	0xbdfd8c73	-0.12380304
1	0xbdac3460	-0.08408427
2	0xbe268381	-0.16261102
3	0xbd12de3a	-0.035856463
4	0xbde3ad07	-0.11116987
5	0xbd0eb01c	-0.03483592
6	0x3cd435f0	0.025904626
7	0xbc85bf6a	-0.016326625
8	0x3d77651b	0.060399156
9	0x3cb80b9c	0.022466473
10	0xbd4a75d9	-0.049428795
11	0x3e2dafdd	0.16961618
12	0x3df50f22	0.11965777
13	0x3e2edb5e	0.1707587

tails.4.hidden_bias f4 [2]
0	0x386ba6ef	5.6183835e-05
1	0x379eab7f	1.8914927e-05

tails.4.reconstruct_bias f4 [7]
0	0xbcfa27e9	-0.030536609
1	0xbcfe32d0	-0.031030089
2	0xbcff8400	-0.031190872
3	0xbd00d97c	-0.03145741
4	0x3d00fb86	0.03148987
5	0x3d00a4d1	0.03140718
6	0x3cfbde61	0.030745687

tails.5.w f4 [9, 3]
0	0x3dba5e75	0.091000475
1	0xbd46118f	-0.04835659
2	0x3c7b20fa	0.015327686
3	0x3d58279b	0.052772146
4	0xbdefc019	-0.117065616
5	0xbc1720c3	-0.00922412
6	0x3d09a978	0.033608884
7	0xbdfbc2ee	-0.12293039
8	0xbdc16e6a	-0.09444888
9	0x3d3786d8	0.04480633
10	0xbd39e5c7	-0.04538515
11	0x3c207444	0.009793345
12	0x3d6368fa	0.055520035
13	0xbdc93eb9	-0.098264165
14	0xbd9d3084	-0.07675269
15	0x3e05aff6	0.13055405
16	0xbd874caf	-0.06606423
17	0x3aaeb061	0.0013327711
18	0x3d8362ff	0.064153664
19	0xbd53bd02	-0.051693924
20	0x3d3facf4	0.0467958
21	0xbc88a275	-0.016679028
22	0xbd0b3462	-0.033985503
23	0x3c0247bd	0.007951674
24	0xbcd38c0f	-0.025823621
25	0x3d216c11	0.0394097
26	0xbd702abe	-0.058634512

tails.5.hidden_bias f4 [3]
0	0xb9d838dd	-0.00041241097
1	0x3a0b2118	0.00053073606
2	0x387da0c9	6.0469643e-05

tails.5.reconstruct_bias f4 [9]
0	0x3c88b729	0.0166889
1	0x3c810819	0.015750932
2	0x3c822e4c	0.015891217
3	0x3cb38485	0.021913776
4	0x3cb75032	0.022377107
5	0x3c9952a2	0.01871616
6	0x3c9fc658	0.019503757
7	0x3ca182d9	0.019715713
8	0x3ca80c7a	0.020513762

tails.6.w f4 [4, 1]
0	0xbe90ce3d	-0.28282347
1	0x3e4857f0	0.19564795
2	0xbc662a2f	-0.014048143
3	0xbde7a2d4	-0.11310354

tails.6.reconstruct_bias f4 [4]
0	0x3d563ec9	0.05230597
1	0x3d5c3d0e	0.053769164
2	0x3d61e572	0.055150457
3	0x3d612fed	0.054977346

tails.7.w f4 [6, 2]
0	0x3d6252b6	0.05525466
1	0x3e4e7c53	0.20164613
2	0xbca27d57	-0.019835157
3	0x3e0dcc4c	0.13847464
4	0xbd45a031	-0.048248474
5	0x3e0c593d	0.13705917
6	0x3d4cc16e	0.049989156
7	0xbcdbec37	-0.026846034
8	0x3e20cd9d	0.15703435
9	0x3d439fe7	0.047759917
10	0x3dea35f4	0.11436072
11	0xbd2f1c8d	-0.042751838

tails.7.hidden_bias f4 [2]
0	0x37162727	8.949813e-06
1	0xb74be073	-1.2152002e-05

tails.7.reconstruct_bias f4 [6]
0	0x3d148454	0.03625901
1	0x3d163558	0.036671966
2	0x3d16612b	0.03671376
3	0x3d1698e6	0.03676691
4	0x3d1551e5	0.036455054
5	0x3d1678f7	0.036736455

tails.8.w f4 [5, 2]
0	0xbe2781c7	-0.163581
1	0x3dec2ced	0.115320064
2	0xbdb3ab4b	-0.08772906
3	0x3e04ba2c	0.12961644
4	0x3dfe0fe9	0.12405378
5	0xbcbdb4e0	-0.023157537
6	0xbe2c9f68	-0.16857684
7	0x3e61ba3d	0.220437
8	0xbe141802	-0.14462283
9	0x3d9f75e0	0.07786155

tails.8.hidden_bias f4 [2]
0	0x3760f01c	1.3407345e-05
1	0xb7d23a36	-2.5061057e-05

tails.8.reconstruct_bias f4 [5]
0	0x3d31c504	0.04340078
1	0x3d32ffea	0.04370109
2	0x3d336917	0.043801393
3	0x3d2ec212	0.04266555
4	0x3d32e89e	0.043678872

tails.9.w f4 [8, 3]
0	0x3cab9520	0.020945132
1	0xbd00e8cc	-0.031472012
2	0xbdcf44e3	-0.10120561
3	0xbd78a8cc	-0.060707852
4	0x3d76863b	0.060186606
5	0xbced89f7	-0.02899645
6	0x3d453937	0.048150267
7	0xbc154e1a	-0.009112859
8	0x3d944529	0.07239754
9	0xbe19ab1e	-0.15006682
10	0xbd7e8d87	-0.06214669
11	0xbc60edb0	-0.013728544
12	0xbddecffa	-0.10879512
13	0xbde59f7f	-0.11212062
14	0xbe18fab8	-0.14939392
15	0xbc5b7f6f	-0.013397082
16	0xbda98cc1	-0.082788
17	0xbde7a4f4	-0.11310759
18	0xbe05176d	-0.12997217
19	0x3c196d18	0.009364389
20	0xbe1abc3d	-0.1511087
21	0xbde4e98b	-0.11177357
22	0xbc35115b	-0.011051501
23	0xbcd2b0f8	-0.02571915

tails.9.hidden_bias f4 [3]
0	0xbabbd59e	-0.0014330631
1	0xbabd6f36	-0.0014452699
2	0xbabc5c08	-0.0014370689

tails.9.reconstruct_bias f4 [8]
0	0x3ce19b58	0.027539894
1	0x3ce1cc5c	0.027563266
2	0x3ce112e4	0.027474828
3	0x3ce052d5	0.027383247
4	0x3cdd7d1d	0.027037198
5	0x3ce0b33f	0.027429221
6	0x3cdead7f	0.027182339
7	0x3ce12975	0.027485589

tails.10.w f4 [4, 1]
0	0xbcc35462	-0.023843948
1	0xbdfc0fd0	-0.123077035
2	0xbe5f3167	-0.21796189
3	0xbcbdd84d	-0.02317443

tails.10.reconstruct_bias f4 [4]
0	0x3d61e10f	0.055146273
1	0x3d6129b4	0.05497141
2	0x3d5f97c1	0.054588083
3	0x3d61e15b	0.055146556

tails.11.w f4 [4, 1]
0	0x3e9568fc	0.2918166
1	0x3e8ef198	0.27918696
2	0x3e8377fe	0.25677484
3	0x3e2d4bac	0.16923398

tails.11.reconstruct_bias f4 [4]
0	0x3d5d3a40	0.05401063
1	0x3d5d9e46	0.05410602
2	0x3d5e45d0	0.054265797
3	0x3d6051e9	0.054765616

tails.12.w f4 [4, 1]
0	0x3be49a58	0.006976407
1	0x3e3e83cf	0.18604968
2	0x3e5be3e5	0.21473654
3	0xbd864b24	-0.06557301

tails.12.reconstruct_bias f4 [4]
0	0x3d61e622	0.055151112
1	0x3d600d63	0.054700267
2	0x3d5f63c2	0.054538496
3	0x3d61a1d8	0.055085987

tails.13.w f4 [9, 3]
0	0xbd8e5e81	-0.06951619
1	0xbdffb8f8	-0.12486452
2	0xbdcc9086	-0.09988503
3	0xbd228e7a	-0.039686657
4	0xbce4a250	-0.027909428
5	0xbdc05397	-0.093909435
6	0xbdca582a	-0.09880097
7	0x3cd33b64	0.025785156
8	0xbdcf6a65	-0.10127715
9	0xbde151f0	-0.110019565
10	0x3d485e4c	0.048918054
11	0x3d72c434	0.059269145
12	0x3d48da64	0.0490364
13	0x3da01097	0.07815664
14	0xbce95343	-0.028482085
15	0x3d5b2f2f	0.053511795
16	0xbda40772	-0.080092326
17	0x3ce50e4e	0.027960923
18	0x3d22e3b7	0.039767947
19	0xbdd2e090	-0.10296738
20	0xbe0a7094	-0.13519508
21	0xbd78a01b	-0.060699563
22	0xbe07aaac	-0.132487
23	0x3c6136bd	0.013745961
24	0xbd81b198	-0.063327014
25	0xbd7c6aef	-0.061625417
26	0xbdb3314f	-0.08749639

tails.13.hidden_bias f4 [3]
0	0x3638f1a7	2.7558797e-06
1	0x36a0883e	4.7842323e-06
2	0x3750ef21	1.2453443e-05

tails.13.reconstruct_bias f4 [9]
0	0x3cc54cc9	0.024084466
1	0x3cc7e92a	0.024403173
2	0x3cc7b740	0.024379373
3	0x3cc8b46e	0.024500098
4	0x3cc812f3	0.024423098
5	0x3cc8c0d3	0.024506008
6	0x3cc744c9	0.024324792
7	0x3cc7a5e8	0.024371102
8	0x3cc71da4	0.024306126

tails.14.w f4 [8, 3]
0	0x3d29f8f5	0.04149719
1	0xbcc036e1	-0.023463668
2	0x3d6e23fb	0.058139782
3	0x3d33513a	0.043778636
4	0xbd0d8753	-0.034552883
5	0x3d8c3d6e	0.06847654
6	0xbd1ca04b	-0.038238805
7	0x3d42e454	0.047581032
8	0xbdf5aa38	-0.11995357
9	0x3acdf1fb	0.0015712375
10	0xbe02010e	-0.12695715
11	0xbe02c92e	-0.12772056
12	0xbd521089	-0.0512853
13	0x3d933f5d	0.0718982
14	0xbc9c93d1	-0.019113453
15	0xbe139c02	-0.14414981
16	0xbd66624a	-0.05624608
17	0x3d6d5996	0.057946764
18	0xbc863d12	-0.016386542
19	0x3d65bbb4	0.05608721
20	0x3df1c3c3	0.11804917
21	0xbe07b9c9	-0.13254465
22	0x3cdbb761	0.02682084
23	0xbde9e8c4	-0.1142135

tails.14.hidden_bias f4 [3]
0	0x37f2eb21	2.8958139e-05
1	0xb7a1eaa8	-1.9301966e-05
2	0x3881262b	6.158309e-05

tails.14.reconstruct_bias f4 [8]
0	0x3cb810c0	0.022468925
1	0x3cbf4a0f	0.023350744
2	0x3c9d7d17	0.019224687
3	0x3c952126	0.018204283
4	0x3c98584a	0.018596787
5	0x3cdc3b4f	0.02688375
6	0x3cc1a3e5	0.023637721
7	0x3ccadb1f	0.024762688

tails.15.w f4 [4, 1]
0	0xbe06a869	-0.13150181
1	0x3e5f283b	0.2179269
2	0x3e817354	0.252833
3	0xbe50d094	-0.20392066

tails.15.reconstruct_bias f4 [4]
0	0x3d320ea1	0.043470982
1	0x3d38a2a5	0.045076985
2	0x3d549db3	0.051908206
3	0x3d5af864	0.05345954

tails.16.w f4 [4, 1]
0	0x3e8b3262	0.27186877
1	0x3e627c4f	0.22117732
2	0xbde9f27a	-0.11423202
3	0xbd163b18	-0.03667745

tails.16.reconstruct_bias f4 [4]
0	0x3d5d2964	0.05399455
1	0x3d5f2f92	0.054488726
2	0xbd5f5115	-0.054520685
3	0xbd6140a4	-0.054993287

head.w f4 [17, 6]
0	0xbc8b5952	-0.017010365
1	0xbc681fc8	-0.0141677335
2	0xbd08ab35	-0.0333664
3	0x3c2aadf8	0.010417454
4	0xbaad1900	-0.0013206303
5	0x3cfa5e76	0.03056262
6	0xbc13627c	-0.0089956485
7	0x3d29c98b	0.041451972
8	0x3ca907ca	0.020633597
9	0xbcedfd96	-0.029051583
10	0x3c538933	0.012911129
11	0xbcecfdc0	-0.028929591
12	0x3d4d0550	0.050053895
13	0x3d1bf497	0.038075056
14	0xbd219c20	-0.039455533
15	0xbca92520	-0.020647585
16	0xbd245fa8	-0.040130287
17	0x3d227a46	0.03966739
18	0x3ba0fd72	0.0049130255
19	0x3c426499	0.011864805
20	0xbc2d7184	-0.010586146
21	0xbb9143ab	-0.0044331155
22	0x3d4fd5e4	0.05074109
23	0xbc011aef	-0.007879957
24	0x3ca27bb9	0.019834386
25	0xbb85065b	-0.0040595955
26	0x3c2d88e3	0.010591718
27	0x3d6f9701	0.058493618
28	0xbb922dd1	-0.004461028
29	0xbcfe44f9	-0.031038748
30	0x3c4515eb	0.012029151
31	0xbd8240e2	-0.06360032
32	0xbbd4aabc	-0.0064900797
33	0x3cd4b3be	0.025964614
34	0x3c137a37	0.009001306
35	0x3d289e21	0.04116643
36	0x3bd8d8e1	0.006617651
37	0xbd24bbd2	-0.040218182
38	0x3ab64583	0.0013906214
39	0xbd2a4bec	-0.04157631
40	0xbd07a200	-0.03311348
41	0x3d3b2620	0.045690656
42	0x3c55826e	0.013031585
43	0xbca6d130	-0.02036342
44	0xbc22f71f	-0.009946614
45	0xbd231e1a	-0.03982363
46	0x3d5020c9	0.050812516
47	0x3c8a7058	0.016899273
48	0xbd4faeac	-0.05070369
49	0x3ca052d3	0.019570744
50	0x3d052a3d	0.032510985
51	0xbd0cfb1b	-0.03441916
52	0x3d5f7fce	0.054565243
53	0xbc68a1cb	-0.014198731
54	0x3d25943e	0.040424578
55	0x3d1545cd	0.03644352
56	0xbc26af7e	-0.010173677
57	0x3cf5facc	0.030026816
58	0xbc4c9492	-0.012486594
59	0x3ca93b4d	0.02065816
60	0xbc83836d	-0.01605388
61	0xbd092a11	-0.033487383
62	0x3c0f04c6	0.008729165
63	0x3d55076a	0.052009024
64	0x3d1eb2f0	0.038744867
65	0x3d3d4357	0.0462068
66	0xbc142ea6	-0.009044325
67	0x3d1b667a	0.037939526
68	0xbd083092	-0.033249445
69	0x3c6d89da	0.014498198
70	0x3d7ea333	0.062167358
71	0xbbaa76a9	-0.0052021337
72	0xbbd1bf6a	-0.006400992
73	0x3cc0fb3f	0.023557303
74	0x3cd3168c	0.025767587
75	0x3d6e9b2f	0.058253463
76	0xbc9ae091	-0.01890591
77	0xbd36e49f	-0.044651624
78	0x3c43905e	0.011936275
79	0x3d10d9f4	0.035364106
80	0x3d48e21d	0.049043763
81	0xbd225922	-0.039635785
82	0xbd2cb828	-0.042167813
83	0xbd03d4c5	-0.032185335
84	0xbd6b8d17	-0.0575076
85	0xbd7d1d5b	-0.061795574
86	0x3d399f98	0.045318216
87	0x3d563898	0.052300066
88	0x3b1a2a48	0.0023523737
89	0xbb8ddb83	-0.0043291464
90	0xbd10ec7f	-0.03538179
91	0xbd49a408	-0.049228698
92	0xbcb47623	-0.022028988
93	0x3c89c57b	0.016817799
94	0x3d82deb4	0.063901335
95	0xbc8c1d9c	-0.017103963
96	0xbcead95a	-0.028668094
97	0xbd87aee2	-0.06625153
98	0x3cf69b8e	0.030103471
99	0xbcb85054	-0.022499241
100	0x3d4f6733	0.050635528
101	0x3bfbe81d	0.007687582

head.hidden_bias f4 [6]
0	0x3547b75b	7.4400094e-07
1	0xb558a9fc	-8.071363e-07
2	0x33bf78eb	8.9161254e-08
3	0x354c96fa	7.621562e-07
4	0x36788da6	3.703733e-06
5	0x3594eca4	1.1095731e-06

head.reconstruct_bias f4 [17]
0	0x3c106500	0.008813143
1	0x3c48f761	0.012266011
2	0x398b8a53	0.00026615206
3	0x3c183161	0.009289117
4	0x3c55308d	0.013012064
5	0x3c45dc5b	0.012076463
6	0x3c550ec3	0.013004008
7	0x3c553ffd	0.013015744
8	0x3c55212a	0.013008395
9	0x3c4f651e	0.012658386
10	0x3c4533c3	0.012036267
11	0x3c5176db	0.012784685
12	0x3c53aa67	0.012919045
13	0x3c54938a	0.012974629
14	0x3c5117c9	0.0127620185
15	0x3c51c24f	0.012802674
16	0x3c548bee	0.012972815
