kitsune/kitsune.pt (torch, 99026 bytes, 47 tensors)

running_sum f8 [100]
0	0x40b1456ec2000000	4421.432647705078
1	0x40fc719eb4000000	116505.9189453125
2	0x41121550fcc00000	296276.2468261719
3	0x40b6958fdc800000	5781.561958312988
4	0x40fc76cee7000000	116588.93139648438
5	0x411abc3dfd200000	438031.4971923828
6	0x40c834623b800000	12392.767440795898
7	0x40fc6f4999800000	116468.59997558594
8	0x41255d46f3e00000	700067.4763183594
9	0x40f0248e6b000000	66120.90112304688
10	0x40fc4ef401000000	115951.25024414062
11	0x412604e502400000	721522.5043945312
12	0x4100c5bbe5800000	137399.48706054688
13	0x40fc4b33db000000	115891.24096679688
14	0x4123ad5af4400000	644781.4770507812
15	0x40b1456ec2000000	4421.432647705078
16	0x40fc719eb4000000	116505.9189453125
17	0x41121550fcc00000	296276.2468261719
18	0x411a4ef875800000	431038.11474609375
19	0x4100b03630c00000	136710.77380371094
20	0xc0956a7455e00000	-1370.6136088371277
21	0x40b2c6dd9325c000	4806.8655265420675
22	0x40b6958fdc800000	5781.561958312988
23	0x40fc76cee7000000	116588.93139648438
24	0x411abc3dfd200000	438031.4971923828
25	0x412214a5f5900000	592466.9796142578
26	0x4100b35f93800000	136811.94702148438
27	0xc0961e1216100000	-1415.5176622867584
28	0x406dbbd0e1c10000	237.8692482728511
29	0x40c834623b800000	12392.767440795898
30	0x40fc6f4999800000	116468.59997558594
31	0x41255d46f3e00000	700067.4763183594
32	0x412bba0031e00000	908544.0974121094
33	0x4100aefdf6800000	136671.74536132812
34	0xc08033190c000000	-518.3872299194336
35	0x403efe136f400000	30.99248404800892
36	0x40f0248e6b000000	66120.90112304688
37	0x40fc4ef401000000	115951.25024414062
38	0x412604e502400000	721522.5043945312
39	0x412c21869fc00000	921795.3120117188
40	0x41009b8a5b000000	136049.29443359375
41	0x40a2d9b405b00000	2412.8516058921814
42	0x40473210dc400000	46.391139537096024
43	0x4100c5bbe5800000	137399.48706054688
44	0x40fc4b33db000000	115891.24096679688
45	0x4123ad5af4400000	644781.4770507812
46	0x412947d308200000	828393.5158691406
47	0x41009a2d89800000	136005.69213867188
48	0x40a35bab89900000	2477.835033893585
49	0x40467791d9000000	44.93413841724396
50	0x409b53744c000000	1748.8635711669922
51	0x40a3a93549800000	2516.604076385498
52	0x4097fa07e3b00000	1534.5077044963837
53	0x409ee74c50800000	1977.8245258331299
54	0x40a4453d6c800000	2594.6199684143066
55	0x40a0fd0e1c600000	2174.52756023407
56	0x40a89140cc000000	3144.6265563964844
57	0x40a59af664000000	2765.481231689453
58	0x40b02f847ee00000	4143.517560958862
59	0x40c94b36a7000000	12950.426971435547
60	0x40a070c15b800000	2104.3776512145996
61	0x40be5c0455800000	7772.016929626465
62	0x40d98c49ad000000	26161.15118408203
63	0x409a7e9c6d000000	1695.652759552002
64	0x40b876bb01400000	6262.730487823486
65	0x40a8340c11000000	3098.023567199707
66	0x40fc7fcdad000000	116732.85473632812
67	0x40e115e5cc9f22c5	34991.18122822562
68	0x40e12aa3f720ad94	35157.12391694929
69	0x41004ea5a7800000	133588.70678710938
70	0xc0362275347f6859	-22.134600907426236
71	0xc045007fff009351	-42.00390613105868
72	0x40ae04930e800000	3842.2872200012207
73	0x40fc7f9f25000000	116729.94653320312
74	0x40e80653c3b001be	49202.61763763752
75	0x40e8363e5d0542a6	49585.94885504739
76	0x41004dfd8c800000	133567.69360351562
77	0xc04586a9bcf6496e	-43.052054996735805
78	0xc02607416fc0b79e	-11.014171116137558
79	0x40bc0e3047000000	7182.188583374023
80	0x40fc7f37ea000000	116723.49462890625
81	0x40f20201c870f00b	73760.11143583075
82	0x40f240d656790800	74765.39611151814
83	0x41004c55a0c00000	133514.70349121094
84	0xc05559f6cf080000	-85.40568900853395
85	0xc01606279887cf8d	-5.506010421075087
86	0x40d9dd7795800000	26485.86849975586
87	0x40fc86a7e7000000	116842.49389648438
88	0x40f21abc92f8000f	74155.7858810427
89	0x40f286e233bb0000	75886.13762950897
90	0x41004beb79000000	133501.43408203125
91	0xc0609c971cffffea	-132.89344644546446
92	0xc006ebc25c5ca639	-2.8651168075346303
93	0x40e979d044800000	52174.508361816406
94	0x40fc83945b800000	116793.27233886719
95	0x40e7ac91571e001d	48484.54188442251
96	0x40e87c3ee87e0000	50145.96588039398
97	0x41004a5d0e800000	133451.63208007812
98	0xc051aad7f0000022	-70.66942977905322
99	0xbff6f6e2f4ee2438	-1.4352750365817553

running_residuals f8 [100]
0	0x4034d737a82f9249	20.840693008054846
1	0xc06e63acff570f0d	-243.11486784938498
2	0xc0dfc273eb1d6881	-32521.811225273184
3	0x404ac2ca7d7e5020	53.52180451076151
4	0xc05ab1dab1442e15	-106.77897292764858
5	0xc0f0fd1df6b2ed4c	-69585.87272923178
6	0x406fec295ef762c9	255.38005016629748
7	0xc04ed48452a979e4	-61.66028817439272
8	0xc107902546d0f4fd	-193028.65957824132
9	0x409f22c3714cb2ae	1992.6908618911798
10	0x4078e63929349281	398.388955312119
11	0xc0fa47d9c4d2f914	-107645.610552762
12	0x40ac40708b0db9e4	3616.2198108949106
13	0x40810689fca5fed3	544.8173764198676
14	0xc0e9ee49d2e4b549	-53106.30699382217
15	0x4034d737a82f9249	20.840693008054846
16	0xc06e63acff570f0d	-243.11486784938498
17	0xc0dfc273eb1d68b7	-32521.81122527338
18	0x40985241523bfa45	1556.563790261412
19	0x409448de04f1ddac	1298.216815737872
20	0xc095a5ec20f89baa	-1385.4805945248613
21	0xc0d0d7563d4020be	-17245.347488433814
22	0x404ac2ca7d7e5020	53.52180451076151
23	0xc05ab1dab1442e15	-106.77897292764858
24	0xc0f0fd1df6b2ed53	-69585.87272923188
25	0xc0e0e88d867fba81	-34628.422668327585
26	0x4097370c1394d6ec	1485.76179344713
27	0xc09b55292fc5ba16	-1749.2902212996319
28	0xc073c24eaac4737c	-316.1442058252212
29	0x406fec295ef762c9	255.38005016629748
30	0xc04ed48452a979e4	-61.66028817439272
31	0xc107902546d0f4fc	-193028.6595782413
32	0xc104db2e3dc2bc2c	-170853.78015658387
33	0x40983541dbada15b	1549.3143145684942
34	0xc084785043262e0d	-655.0391905768207
35	0xc01be26b567074ae	-6.9711125856530725
36	0x409f22c3714cb2ae	1992.6908618911798
37	0x4078e63929349281	398.388955312119
38	0xc0fa47d9c4d2f914	-107645.610552762
39	0xc0f7c56c4ea95837	-97366.76920446834
40	0x409e1ff249e7aba3	1927.9866100500592
41	0xc08d6f40176e54ef	-941.9062946910543
42	0xc00c2b5b0ea7f29c	-3.5211697716716355
43	0x40ac40708b0db9e4	3616.2198108949106
44	0x40810689fca5fed3	544.8173764198676
45	0xc0e9ee49d2e4b559	-53106.30699382228
46	0xc0e36a73a6492ab0	-39763.6140485605
47	0x40a03800f4dc5cee	2076.001868139595
48	0xc0884d7d754460f6	-777.6862588255015
49	0xc007ae7a13ed5076	-2.9601937825009896
50	0xc0207cfea9a5e1fc	-8.244130422114715
51	0xc061891ffec6d367	-140.28515566666758
52	0xc007ae9fafdfabd0	-2.9602655162939087
53	0xbfec716f2d4c7480	-0.8888469586123762
54	0xc06168085d92c05f	-139.2510211817016
55	0xc035aa9d2a56af7c	-21.66646065346093
56	0x4048c82a710acc8f	49.56379521395967
57	0xc060ddf1dda6215c	-134.93577463576628
58	0x4048b3e8a37c7a8c	49.40553706720411
59	0x4079718e63d5d05f	407.09726317902636
60	0xc03e89fc2431d579	-30.539003622213816
61	0xc0663bbd063dd56c	-177.86682426525965
62	0x408751feea5f52c1	746.2494704672937
63	0xc00dacc165a9c720	-3.7093532507359583
64	0xc0435ec28899c2d4	-38.740311694220196
65	0x400569c45171bba6	2.6766439783891256
66	0xc077f43268f2c8b5	-383.26230711781983
67	0xc0dc1309b13b746e	-28748.151442397786
68	0xc0dc13cb39328a57	-28751.175366053674
69	0x4094d5715fe618a7	1333.3607173874423
70	0xbffe8712b89e8da5	-1.9079768382733644
71	0xc030a62210eaa4b9	-16.648957307134626
72	0x40308371844aaa8f	16.513450878361763
73	0xc07bcf137c046b84	-444.94225694395595
74	0xc0de015d9935aea8	-30725.462476177752
75	0xc0de02be927b0696	-30730.97769046443
76	0x4093d0600ae430c9	1268.093791547277
77	0xc02d76c6a8dc2b72	-14.731984402538476
78	0xc011036e4dff68be	-4.2533504664554
79	0x40646a2a4868ed66	163.3176614808428
80	0xc07c9c998eb533f2	-457.7874896124114
81	0xc0d423e3a3f30bf9	-20623.556881677334
82	0xc0d4296039a91626	-20645.503519317273
83	0x40934385ac21042d	1232.880539432411
84	0xc0597f4466d35f3b	-101.98854990617558
85	0xc0029854db0cc42c	-2.324380599333855
86	0x4090d985fe07d39a	1078.3808518622304
87	0xc07afd91689ba3f5	-431.8480001525598
88	0xc0e00fbf2cd12854	-32893.97422082783
89	0xc0dffbaf443729ea	-32750.738538542682
90	0x40929baae9a08c80	1190.9169068418269
91	0xc06e71092d982eb5	-243.53237037394652
92	0xc00a6dc7bf8dd904	-3.3036036458171356
93	0x4097b7f7875edafd	1517.9917273350868
94	0xc078abed152af588	-394.7453815153208
95	0xc0d32a4e5f8491e8	-19625.224579946982
96	0xc0d3011528da0304	-19460.33061838431
97	0x4093196b2578294f	1222.3546351218426
98	0xc06dbc871b1523a7	-237.89149240616572
99	0xc00ac284fa6ee1e8	-3.3449801983917844

running_squared_residuals f8 [100]
0	0x40b9b5b718e6c9f6	6581.7152237170285
1	0x413030caa70f240b	1061066.6525747802
2	0x41eda7b8d5935444	3980248748.6040363
3	0x40c5dad8cb32cabe	11189.693701123233
4	0x412cc43b0d853c93	942621.5264071397
5	0x41fa74bcaab83cd3	7101729451.51485
6	0x40eb4b96a6118b19	55900.707772037196
7	0x41220ea3f9c65342	591697.9878412264
8	0x420976711357c6de	13670163050.972103
9	0x413632bf8bf79fbb	1454783.5467471916
10	0x410dcd8c2ad77590	244145.52091876836
11	0x41f29d40202e4d28	4996727298.893837
12	0x4161ca4de3a40a08	9327215.113774315
13	0x410b99fdb5ce4e54	226111.71377240366
14	0x41e85380e8379197	3265005377.736522
15	0x40b9b5b718e6c9f6	6581.7152237170285
16	0x413030caa70f240b	1061066.6525747802
17	0x41eda7b8d5935446	3980248748.6040373
18	0x41f63bbd3080e9a1	5968220936.057038
19	0x413bedad9dd05113	1830317.6164599105
20	0x4141beb4dea605dc	2325865.7394416165
21	0x41961229e4dc1434	92572281.21492082
22	0x40c5dad8cb32cabe	11189.693701123233
23	0x412cc43b0d853c93	942621.5264071397
24	0x41fa74bcaab83cd3	7101729451.51485
25	0x4201415e7c9444fd	9263894418.533686
26	0x413a67a4087403ab	1730468.0330202382
27	0x414c646d5dc69dfb	3721434.732623813
28	0x40e36d96541602cc	39788.69776440188
29	0x40eb4b96a6118b19	55900.707772037196
30	0x41220ea3f9c65342	591697.9878412264
31	0x420976711357c6de	13670163050.972103
32	0x420edc95db7789d1	16568728430.942293
33	0x4134f8e3cb612f54	1374435.7944516735
34	0x414421735b1853e1	2638566.711679921
35	0x4037cb8f6a676357	23.79515709900019
36	0x413632bf8bf79fbb	1454783.5467471916
37	0x410dcd8c2ad77590	244145.52091876836
38	0x41f29d40202e4d28	4996727298.893837
39	0x41f790c6305593d1	6325822213.348588
40	0x412f424b464cb45b	1024293.637303959
41	0x410fc23d4df1760c	260167.6630582068
42	0x4027e77a15428fd7	11.952103294730405
43	0x4161ca4de3a40a08	9327215.113774315
44	0x410b99fdb5ce4e54	226111.71377240366
45	0x41e85380e8379197	3265005377.736522
46	0x41ef4f0e4e5be264	4202197618.8713856
47	0x412ee70941a050a1	1012612.628176231
48	0x41017d7d79b25f9c	143279.68442225165
49	0x40264083a957a849	11.126004497480737
50	0x407abbc8ee2bd373	427.7365552627518
51	0x40cadac2e34c0b0a	13749.52256155528
52	0x40fb210ba05594ac	111120.72664411616
53	0x407e3dad3f19c6b1	483.85479650563053
54	0x40cae1622bdb2c32	13762.766963383274
55	0x40ffa7d5cd96ad2c	129661.36269252439
56	0x4091ecac30b6450b	1147.168154571499
57	0x40cb37e000856173	13935.750015900214
58	0x41074fe6c2107a82	190972.84475799283
59	0x40e53dc11443725a	43502.033723567336
60	0x40b65b67cb6276ee	5723.405447153125
61	0x41142fe7ea93efb0	330745.9790799571
62	0x41124ea6edb243ad	299945.73212533706
63	0x40a33d7f609eecd7	2462.7487840332137
64	0x410f8272b4f26825	258126.3383529793
65	0x40b67c305e454d2a	5756.1889384568585
66	0x413302e3911791cb	1245923.566765892
67	0x41b6a9ff0a12c3e0	380239626.0733013
68	0x41b6a9e93c9e8989	380234044.6192861
69	0x413e131b7fa9c25d	1970971.4986840703
70	0x406321cfb331add5	153.05660400107323
71	0x407e7446276ac408	487.26712743478174
72	0x40c483162cecd3e0	10502.173246005492
73	0x4132bd0c85d18057	1228044.5227279866
74	0x41c76b2d7ff9bb0a	785799935.9510205
75	0x41c76b09c35a7c22	785781638.7069132
76	0x413dcab7949269b6	1952439.580359084
77	0x4089937f604b2e01	818.4371953843512
78	0x4031428a3c642669	17.25992181248731
79	0x40eae19359023221	55052.60461530486
80	0x4132331bf2798847	1192731.9471669362
81	0x41d34e27dfa61b60	1295556478.5954208
82	0x41d34dd7dc60bb3b	1295474545.5114276
83	0x413d3fdffe8d03da	1916895.9943392188
84	0x40b2583d777c7e78	4696.24010446632
85	0x3ffcc5ef4cee83e2	1.7983239178795363
86	0x412c75cb0febaa55	932581.531094859
87	0x4131ee7b519bd297	1175163.3187839144
88	0x41bb17306f72938a	454504559.44756377
89	0x41bb14dd77713c6f	454352247.4423284
90	0x413d232df77a8094	1909549.9667129861
91	0x40d04acd11d74db5	16683.20421393002
92	0x400cba9ef3e1821f	3.5911234906382243
93	0x4151d53245a6b08c	4674761.088298928
94	0x41321c764deea3f1	1186934.3044226135
95	0x41a052fb0a5365f3	136936837.1628872
96	0x41a050624597270e	136851746.79521984
97	0x413d6436a7ed0314	1926198.6559602665
98	0x40d201c6e73adebf	18439.10786315682
99	0x40116dd5fd2603c3	4.357261615224107

running_corr_mat f8 [100, 100]
0	0x40b9b5b718e6c9f6	6581.7152237170285
1	0xc0943505a2cada8a	-1293.2555038162122
2	0xc11022d27854cbee	-264372.61751097336
3	0x40c057fd11965837	8367.9770992213
4	0xc0965f3ce6c23444	-1431.8094740242386
5	0xc11c080308f05feb	-459264.75872945663
6	0x40ce36393840e680	15468.447029221104
7	0xc099cbc5ef866ce3	-1650.9432965282401
8	0xc128800f734e16f0	-802823.7252051514
9	0x40e56d58dee16a85	43882.777207096144
10	0xc0a1985b1250f394	-2252.1778741166436
11	0xc12c409173acb6d5	-925768.7259270797
12	0x40f2f1d39789d0b0	77597.22449666518
13	0xc0a1812c4b3396ba	-2240.586511242055
14	0xc129b56993e5d58e	-842420.7888628708
15	0x40b9b5b718e6c9f6	6581.7152237170285
16	0xc0943505a2cada8a	-1293.2555038162122
17	0xc11022d27854cbee	-264372.61751097336
18	0xc11c05c339c581f0	-459120.8064174941
19	0xc0d9e09fd33d163f	-26498.49726798222
20	0x40902fc55ce6ceda	1035.9427372039559
21	0xc0c0e01151d244eb	-8640.135309489871
22	0x40c057fd11965837	8367.9770992213
23	0xc0965f3ce6c23444	-1431.8094740242386
24	0xc11c080308f05fea	-459264.7587294566
25	0xc124acb244c4534a	-677465.1343103435
26	0xc0da155f56960a3e	-26709.489659795763
27	0x40852086b0d78267	676.0657669865294
28	0xc0752fb3e51c5a29	-338.9814196689136
29	0x40ce36393840e680	15468.447029221104
30	0xc099cbc5ef866ce3	-1650.9432965282401
31	0xc128800f734e16ef	-802823.7252051512
32	0xc13073e3a706e128	-1078243.652448723
33	0xc0da51f2858e8c88	-26951.7894016621
34	0x4075f0c0033e0968	351.0468780921278
35	0xc043b65340f40bf6	-39.42441570202202
36	0x40e56d58dee16a85	43882.777207096144
37	0xc0a1985b1250f394	-2252.1778741166436
38	0xc12c409173acb6d4	-925768.7259270796
39	0xc13131c4a330d7c9	-1126852.6374640337
40	0xc0dab4e56a16de92	-27347.584600179056
41	0xc09968f70331a79d	-1626.241223121505
42	0xc049288f4b5149b7	-50.31687299222124
43	0x40f2f1d39789d0b0	77597.22449666518
44	0xc0a1812c4b3396ba	-2240.586511242055
45	0xc129b56993e5d591	-842420.7888628711
46	0xc12ee9b9fb198fe2	-1012956.9904293979
47	0xc0dab5d992fd1d50	-27351.399596480012
48	0xc0a0eaf03c20c697	-2165.469208740465
49	0xc048b03f6ebdab12	-49.376935808764884
50	0x4077587edf18aa7c	373.5309744800104
51	0xc08a4b8f4bd9b45b	-841.4449688919225
52	0x4091b8adef467da2	1134.1698580755406
53	0x40801dece9ed0fc4	515.7406805534779
54	0xc088023a88b3e724	-768.2785810522951
55	0x409b814ef11c6a35	1760.3270916404556
56	0x408b82b1a1e94046	880.3367346022358
57	0xc081069ee3e034a7	-544.8275830761021
58	0x40ab85c08e2cff2d	3522.876084715032
59	0xc087c0edddac55cc	-760.1161454642947
60	0xc07e3c9575abf736	-483.78648917364205
61	0x40ab231e2cc2805a	3473.558935239952
62	0xc0aa040baf9784d7	-3330.0228240346582
63	0xc080fbea1252c219	-543.489292761372
64	0x408557dabb27a17d	682.9818022819669
65	0x40b25a69320ea8c3	4698.410920063211
66	0xc07d619b6547dea8	-470.10043838571664
67	0xc0ed63b82a93af6e	-60189.75519737495
68	0xc0ed8cfaf7f60805	-60519.842768684066
69	0xc0db6f664f49fce8	-28093.598589417437
70	0x40370d2184df5949	23.05129270985461
71	0x4055e1697fc60be6	87.52206415501095
72	0x40b7f8631f535f3d	6136.387196741821
73	0xc07c3fc254a5871d	-451.98494400653163
74	0xc0f5b635427db8f1	-88931.3287331795
75	0xc0f5e57857391871	-89687.52129468486
76	0xc0db62d97b4eb683	-28043.398151090845
77	0x4049320bccbc67e5	50.39098509978775
78	0x4035f802a52e738d	21.968790363159815
79	0x40c7dd0564826d41	12218.042129805895
80	0xc07a70327d46a9e6	-423.0123265037822
81	0xc1013550e6b5644f	-140970.11265066496
82	0xc10170efd8261137	-142877.9805413575
83	0xc0db45c9f86ad491	-27927.155787189087
84	0x406388df98094fbb	156.27729417627947
85	0x4024c09b198c43db	10.376183317539406
86	0x40e1b01d8f98aecc	36224.92377885952
87	0xc08452d4a6cc93bb	-650.353833769091
88	0xc101adf30276811b	-144830.37620259155
89	0xc10213a98b6616c0	-148085.1930658128
90	0xc0db3d71c9e71438	-27893.77794815993
91	0x4075ed6e588cc22f	350.83943991645623
92	0x401ad7b994cabc01	6.710668873666692
93	0x40f00501ef2ca48d	65616.12089218404
94	0xc080c9e03c60a1e1	-537.234490160885
95	0xc0f6411f17b4081b	-91153.94328692595
96	0xc0f704d28c6ee308	-94285.15928543743
97	0xc0db2026bd117251	-27776.605289804113
98	0x40702bac45f16409	258.7295588902785
99	0x4012217b37f412de	4.532696604034497
100	0xc0943505a2cada8a	-1293.2555038162122
101	0x413030caa70f240a	1061066.65257478
102	0x418287f7829beaa7	38862576.32613116
103	0xc0a440f3ab29374c	-2592.4759152297975
104	0x412e36f39a772129	990073.8016901362
105	0x418d3c6673089ec1	61312206.37920905
106	0xc0c033fa41d7bc39	-8295.955134360223
107	0x4125b60aee26c98e	711429.4651396738
108	0x419524a275f7b1ff	88680605.49188994
109	0xc0e26ca6112a8b39	-37733.189595481796
110	0x4112fa4693a1bf72	310929.6441717065
111	0x4182240deb4a654c	38044093.41132602
112	0xc0f2166777f1d007	-74086.46678334485
113	0x41108472982f54bd	270620.64861805347
114	0x4179143816180cd5	26297217.380871613
115	0xc0943505a2cada8a	-1293.2555038162122
116	0x413030caa70f240a	1061066.65257478
117	0x418287f7829beaa8	38862576.326131165
118	0x4182daffda5e686c	39542779.29609761
119	0x4131ed81f37ddb64	1174913.9511391753
120	0xc105405bc524e4ea	-174091.47126177634
121	0xc0df95076c561c0e	-32340.115987327
122	0xc0a440f3ab29374c	-2592.4759152297975
123	0x412e36f39a772129	990073.8016901362
124	0x418d3c6673089ec1	61312206.37920905
125	0x418dac5a401f21d7	62229320.01520126
126	0x4130d1f71091f859	1102327.064727327
127	0xc10b9e5f305a4e99	-226251.89860974698
128	0xc0915d310e0cee28	-1111.2979051609382
129	0xc0c033fa41d7bc39	-8295.955134360223
130	0x4125b60aee26c98e	711429.4651396738
131	0x419524a275f7b1ff	88680605.49188994
132	0x4195a8e9b8f6e776	90847854.24111733
133	0x412921af44af1782	823511.6341483446
134	0xc106f5e0eb59de04	-188092.11491750192
135	0xc04803a2cfbc8814	-48.028406111771034
136	0xc0e26ca6112a8b39	-37733.189595481796
137	0x4112fa4693a1bf72	310929.6441717065
138	0x4182240deb4a654c	38044093.41132602
139	0x4183951f7f4ee8cf	41067503.913529985
140	0x411a202da605c835	428043.4121314318
141	0xc0d0ebdd45127ca9	-17327.457340833414
142	0xc053fe10a0c40b78	-79.9697648920536
143	0xc0f2166777f1d007	-74086.46678334485
144	0x41108472982f54bd	270620.64861805347
145	0x4179143816180cd5	26297217.380871613
146	0x417beef2064e246a	29290272.394077696
147	0x4117c9180c85c022	389702.01222896774
148	0xc03067446ca3f2c0	-16.40338782313006
149	0xc0582922d6e23728	-96.64275142756799
150	0x40b28d6d1a7e7bff	4749.426185517571
151	0x40ba8ab5b3e0a12e	6794.70977596221
152	0x41016177ddda8002	142382.98332691198
153	0x40b11dcb04387279	4381.793033149669
154	0x40b8da712c195268	6362.442079146022
155	0x410101dd91248b45	139323.69587048344
156	0x40acd25f8dd3fe5a	3689.1866289375293
157	0x40b479f276957913	5241.947121946391
158	0x40ffdd0d0bc50604	130512.81537344313
159	0x40c09ae666e35fa3	8501.800014898012
160	0x40ad15eecdd842c6	3722.966414220954
161	0x4102267555ba0170	148686.6668586838
162	0x40d14cebc11d6a8a	17715.683661798517
163	0xc08b984754774e5e	-883.034829074935
164	0x40fbbb1d746018e5	113585.84091195797
165	0xc08146f3a3ab1ca3	-552.8689645164599
166	0x41306fbe1b744521	1077182.10724289
167	0x414d2b6ebb288f35	3823325.4621752747
168	0x414d2dc1f9439cbb	3824515.9473758615
169	0x4131590b19d29f37	1136907.1008700856
170	0xc0756662ae01f270	-342.3990917278343
171	0xc04dd657f5e31735	-59.67455934132014
172	0xc0a5c193dc706bd7	-2784.788791192211
173	0x413048a84866e2f6	1067176.2828199244
174	0x4158d7de1a1791b8	6512504.407688551
175	0x4158daa64584f4bd	6515353.086239991
176	0x413131534d2ab45a	1126739.301432869
177	0xc08726fdfc87e4d4	-740.8740168205936
178	0xc037c4b93c8bc239	-23.768451484795353
179	0xc0c9f0279ebccc42	-13280.309531783805
180	0x412fbea0dc684a83	1040208.4304831777
181	0x416017c36901c95b	8437275.281468084
182	0x41601ac7f41b7bbf	8443455.628354905
183	0x4130c7c45d2cca2c	1099716.363964687
184	0xc09954e74fe0b6cc	-1621.2258906470843
185	0xc041dbd44eb2f7ea	-35.71741660822575
186	0xc0f4b3f484fe46eb	-84799.28246905997
187	0x412eab5e3912221e	1004975.1114664709
188	0x414750aa8c7fec2f	3055957.0976538877
189	0x4147623ca7d8922b	3064953.3112967215
190	0x41303d5017376fa6	1064272.0906896382
191	0xc0ad1a8019a734b2	-3725.2501957179857
192	0xc0505fd6db379abd	-65.497488788892
193	0xc105260a6f846b6c	-173249.30445178912
194	0x412ea7515e33e9cd	1004456.6839898169
195	0x413afd3401c81fe0	1768756.0069599077
196	0x413b1f18e7037b1b	1777432.902396864
197	0x41303b4ecc96a22c	1063758.7991734846
198	0xc0ad03048e6cee36	-3713.5088991204057
199	0xc04f530bed10c866	-62.6488014537761
200	0xc11022d27854cbee	-264372.61751097336
201	0x418287f7829beaa7	38862576.32613116
202	0x41eda7b8d5935442	3980248748.6040354
203	0xc115f4e19d874572	-359736.40383633145
204	0x418366a9c6c1b738	40686904.84458774
205	0x41f2e8efb8796933	5076089735.588183
206	0xc12cd88d16ef6e5b	-945222.5447954641
207	0x417f2b1d621161e2	32682454.12924374
208	0x41f5dfca4b5a6d17	5871805621.651633
209	0xc14f23006bc2de8e	-4081152.8418844407
210	0x41630ea19fd13b34	9991436.994290926
211	0x41e1ef41415416ee	2407139850.627799
212	0xc15ac4566aa2da50	-7016793.666189745
213	0x415b0a32de5e46cf	7088331.474504187
214	0x41d761e47562c72c	1569165781.5434065
215	0xc11022d27854cbee	-264372.61751097336
216	0x418287f7829beaa7	38862576.32613116
217	0x41eda7b8d5935442	3980248748.6040354
218	0x41ed89cacf715303	3964556923.5413833
219	0x4182b1fd1283d1a0	39206818.31436467
220	0xc1806b89742ae487	-34435374.520943694
221	0xc1232e5c400e28c4	-628526.1251080264
222	0xc115f4e19d874572	-359736.40383633145
223	0x418366a9c6c1b738	40686904.84458774
224	0x41f2e8efb8796933	5076089735.588183
225	0x41f2d77d24570491	5057794629.438615
226	0x4183582058e774f7	40567819.11301606
227	0xc186e1cce376a63e	-47987100.43293427
228	0xc0f0112e1b73053a	-65810.88170148889
229	0xc12cd88d16ef6e5b	-945222.5447954641
230	0x417f2b1d621161e2	32682454.12924374
231	0x41f5dfca4b5a6d17	5871805621.651633
232	0x41f5c77659443dfb	5846295956.265132
233	0x417eea8d15c270b3	32418001.35997076
234	0xc183b69afe76c325	-41341791.807989396
235	0xc0d76d183ad2239d	-23988.37859014013
236	0xc14f23006bc2de8e	-4081152.8418844407
237	0x41630ea19fd13b34	9991436.994290926
238	0x41e1ef41415416ee	2407139850.627799
239	0x41e20862ce78c006	2420315763.7734404
240	0x4165a1086262cce1	11339843.074560585
241	0xc152ed87eac6c36f	-4961823.668381556
242	0xc0bf5c0afa29d477	-8028.042879690524
243	0xc15ac4566aa2da50	-7016793.666189745
244	0x415b0a32de5e46cf	7088331.474504187
245	0x41d761e47562c72d	1569165781.5434067
246	0x41d7c6e2c2b865dc	1595640586.881217
247	0x4160f556da64ad5d	8891062.824789697
248	0xc12e80c29d72b2c5	-999521.3075157037
249	0xc0ba1700c9e58ec5	-6679.003080699306
250	0x40e566acec40ef2f	43829.40383955684
251	0x41195d3cfc5e2d36	415567.24645300524
252	0x414ca497af3141a4	3754287.3686906863
253	0x40d9a739e83dd8f5	26268.90479990184
254	0x4118b1584a87ec28	404566.07278412813
255	0x414bbf1beb2640e2	3636791.8371049026

tails.0.w f4 [10, 4]
0	0xbdba1222	-0.0908549
1	0x3c3ad8ad	0.011404199
2	0x3d8afb27	0.06786185
3	0xbdc0d76f	-0.09416091
4	0xbd6a29e7	-0.057168867
5	0xbc9586ca	-0.018252749
6	0x3d1eeafa	0.03879831
7	0x3c52b63a	0.012860829
8	0x3dc53f0d	0.096311666
9	0x3c0ff29a	0.008785868
10	0x3d2cdaec	0.042200968
11	0x3d2417c7	0.04006174
12	0x3bafbafa	0.0053628655
13	0xbc073785	-0.008252983
14	0x3d88ef44	0.06686261
15	0xbcb86ac2	-0.022511844
16	0x3d4d90fb	0.050187092
17	0xbc7008c2	-0.0146505255
18	0x3d127c94	0.03576334
19	0xbd6a97aa	-0.057273544
20	0xbd6a8ad3	-0.0572613
21	0xbc984b8e	-0.018590715
22	0x3d85514f	0.06509649
23	0xbbb13f12	-0.00540913
24	0xbd75c909	-0.060006175
25	0xbd803269	-0.06259615
26	0x3d1e5ba8	0.03866163
27	0x3c178c0e	0.0092497
28	0x3d0974a4	0.033558503
29	0x3daaca4d	0.08339367
30	0xbd8fc841	-0.07020617
31	0x3d800e81	0.062527664
32	0xbca20ae5	-0.019780586
33	0xbd91dd89	-0.071223326
34	0x3d1e361d	0.038625825
35	0xbc868777	-0.016422017
36	0x3bd643ed	0.006538859
37	0x3dab62b8	0.083684385
38	0x3cd56f15	0.026053945
39	0x3a6ff324	0.0009153357

tails.0.hidden_bias f4 [4]
0	0x38d50348	0.00010157243
1	0x36e252d8	6.744969e-06
2	0xb9c5857e	-0.00037674227
3	0x389e9a40	7.5627584e-05

tails.0.reconstruct_bias f4 [10]
0	0xba902974	-0.0010998682
1	0xba902d5c	-0.0010999846
2	0xba902d54	-0.0010999837
3	0xba8f8f98	-0.0010952828
4	0xba8dec7d	-0.0010827925
5	0xba8db870	-0.0010812413
6	0xba8f8fab	-0.001095285
7	0xba8f58cd	-0.0010936499
8	0xba8f8f6d	-0.0010952778
9	0xba8f5be7	-0.0010937423

tails.1.w f4 [10, 4]
0	0x3ce42b46	0.027852666
1	0x3d6ddf77	0.05807444
2	0x3dbae4fd	0.09125707
3	0xbd0d161c	-0.034444913
4	0xbd18cd45	-0.037305135
5	0x3dc6b08b	0.09701642
6	0xbc9c347d	-0.019067997
7	0xbdc16a17	-0.09444063
8	0xbbc115f8	-0.0058925115
9	0x3d4b6a8f	0.04966217
10	0xbdafafe2	-0.08578469
11	0xbcc5d319	-0.02414851
12	0xbbf446a1	-0.0074547087
13	0xbc3df1df	-0.011593311
14	0x3d5b8c39	0.053600524
15	0xbd71694a	-0.058938302
16	0xbda31c75	-0.07964412
17	0xbd3ab463	-0.045582186
18	0xbc9dd5b8	-0.019266948
19	0x3d7e0daa	0.06202475
20	0xbb9bfeba	-0.0047605904
21	0x3ca3a69e	0.01997691
22	0x3b22a1f5	0.0024815772
23	0xbd99ddc2	-0.07513
24	0xbd92fc29	-0.07177002
25	0xba8d6b3b	-0.0010789403
26	0x3d7c47a2	0.061591752
27	0xbd59b7b7	-0.05315372
28	0x3caaab01	0.020833494
29	0x3d97b403	0.074073814
30	0xbd196f8b	-0.03745989
31	0xbd6c26c0	-0.057654142
32	0xbd6bee7e	-0.05760049
33	0xbd98d650	-0.07462752
34	0xbd8826b7	-0.06648009
35	0x3d886f15	0.06661812
36	0xbdc80687	-0.0976687
37	0x3d21c9ab	0.039498966
38	0xbcba3c4a	-0.022733826
39	0xbd7f94ba	-0.062397696

tails.1.hidden_bias f4 [4]
0	0x398921ea	0.00026155944
1	0xb925b4f3	-0.00015803035
2	0x3881590a	6.167784e-05
3	0x397ac7f0	0.0002391634

tails.1.reconstruct_bias f4 [10]
0	0xba2f428a	-0.00066856353
1	0xba5ba444	-0.00083786645
2	0xba4ca6dc	-0.00078068464
3	0xba901d2e	-0.0010995024
4	0xba8fe609	-0.001097859
5	0xb9fb977d	-0.00047987318
6	0xb9f45f1f	-0.00046610177
7	0xba8f7ab5	-0.0010946604
8	0xba8a79bb	-0.0010564843
9	0xba8bba6d	-0.0010660418

tails.2.w f4 [10, 4]
0	0x3d87c2c2	0.06628944
1	0xbd993008	-0.07479864
2	0xbdacd2f3	-0.08438673
3	0xbcd00bd1	-0.02539626
4	0xbda1e307	-0.0790463
5	0x3d1207c8	0.035651952
6	0x3d8eb436	0.06967966
7	0x3d4d42ba	0.050112464
8	0x3cd894f4	0.026438214
9	0x3d98bcda	0.074578956
10	0x39c8707d	0.00038230783
11	0xbcb38b2f	-0.021916954
12	0xbdaef65c	-0.08543083
13	0xb82712bd	-3.9833354e-05
14	0x3d037852	0.03209717
15	0x3c87711e	0.01653343
16	0x3d350017	0.04418954
17	0xbcd34e73	-0.025794243
18	0x3c0f84c5	0.008759682
19	0xbdb4bf7b	-0.088255845
20	0x3b5b8880	0.0033498108
21	0xbd93717a	-0.07199378
22	0xbdbadb0b	-0.091238104
23	0x3dc60403	0.09668734
24	0x3d1e0692	0.038580485
25	0x3cd8c545	0.026461253
26	0xbce2b454	-0.027673878
27	0x3d2e0be7	0.04249182
28	0x3d36f487	0.044666793
29	0xbc798787	-0.015230066
30	0xbd935831	-0.071945556
31	0xbd92314c	-0.07138309
32	0xbc81c855	-0.015842596
33	0xbd381c68	-0.044948965
34	0xbdb10d3a	-0.08645101
35	0x3c25ca05	0.010118966
36	0xbd813537	-0.06308978
37	0xbc00875c	-0.007844772
38	0xbd582a2b	-0.05277459
39	0xbd5ce12b	-0.053925674

tails.2.hidden_bias f4 [4]
0	0x378bcd06	1.6665563e-05
1	0x38d5bf22	0.00010192233
2	0x399c5e96	0.0002982511
3	0x3851f2f3	5.0055747e-05

tails.2.reconstruct_bias f4 [10]
0	0xba7acf0b	-0.0009567595
1	0xba4e683b	-0.0007873808
2	0xba7ace7b	-0.0009567511
3	0xba4e448d	-0.0007868491
4	0xba7d3e5b	-0.0009660476
5	0xba5a2af2	-0.00083224394
6	0xba87a500	-0.0010348856
7	0xba82dca0	-0.0009983964
8	0xba869c8e	-0.0010270046
9	0xba7e8721	-0.0009709467

tails.3.w f4 [10, 4]
0	0xbc2cd9c1	-0.010549963
1	0x3d65365b	0.05596004
2	0x3dab8e19	0.08376712
3	0x3d2b957a	0.0418906
4	0xbd825333	-0.06363525
5	0xbcde4242	-0.027131204
6	0x3d604437	0.054752555
7	0xbd83ea58	-0.06441182
8	0x39f06845	0.00045854054
9	0x3db3a244	0.08771184
10	0x3dbc7b1d	0.092031695
11	0x3da178cb	0.078843676
12	0x3d9bb918	0.07603663
13	0xbd489ab3	-0.048975658
14	0x3c8b9d10	0.017042667
15	0x3dbdb458	0.092629135
16	0xbd2efae6	-0.042719744
17	0xbd0cd5f2	-0.03438372
18	0x3dadac14	0.08480087
19	0x3d59c51f	0.053166505
20	0x3d721fa4	0.059112206
21	0xbd145020	-0.036209226
22	0xbdb3ea2f	-0.08784901
23	0x3dc839d8	0.09776658
24	0xbd9e15cf	-0.077190034
25	0x3db28b36	0.08717959
26	0x3ca74327	0.020417763
27	0xbb3f3914	-0.0029178308
28	0x3b8c4fbf	0.0042819674
29	0x3d8d7257	0.06906574
30	0x3d91cde9	0.07119352
31	0xbd469ee6	-0.04849138
32	0x3c8174a4	0.015802689
33	0x3d8ef87b	0.06980988
34	0xbd9d12f1	-0.076696284
35	0x3d9e7297	0.077367
36	0x3dad174d	0.0845171
37	0x3d61ebf8	0.055156678
38	0x3da2b52b	0.07944711
39	0x3d9e5cac	0.077325195

tails.3.hidden_bias f4 [4]
0	0x38d37875	0.00010083701
1	0x38a221fb	7.731091e-05
2	0xb9129a10	-0.00013981038
3	0x38152837	3.556182e-05

tails.3.reconstruct_bias f4 [10]
0	0xb95185d9	-0.00019981655
1	0xba5a42b0	-0.0008325977
2	0xba39901b	-0.00070786633
3	0x3920f347	0.00015349417
4	0x39284bd0	0.00016049971
5	0x3a41e649	0.0007396681
6	0x3a2faf70	0.00067018624
7	0x3a47d9cb	0.0007623701
8	0x3a39968a	0.0007079622
9	0x3a29318f	0.0006454223

tails.4.w f4 [6, 2]
0	0xbdef058b	-0.11670979
1	0xbd6e6de3	-0.058210265
2	0x3daf1922	0.085497156
3	0x3d86b163	0.065768026
4	0x3dbeb429	0.093117066
5	0x3e0f64af	0.14003251
6	0xbdfc57a2	-0.12321402
7	0xbe197167	-0.14984666
8	0xbc5758ff	-0.013143777
9	0xbd82e0a5	-0.06390504
10	0xbe13361d	-0.14376111
11	0x3e2a9723	0.16659217

tails.4.hidden_bias f4 [2]
0	0x37af245f	2.0878562e-05
1	0xb64e706d	-3.0761832e-06

tails.4.reconstruct_bias f4 [6]
0	0x3ac91ce7	0.0015343697
1	0x3ac9abac	0.0015386245
2	0x3ac52fa5	0.0015044106
3	0x3ac50517	0.0015031424
4	0x3ac55685	0.0015055692
5	0x3ac1ac49	0.0014776076

tails.5.w f4 [4, 1]
0	0xbe05b9ae	-0.13059112
1	0x3e035dc2	0.12828735
2	0xbd13edaf	-0.036115345
3	0xbd9faa9f	-0.07796215

tails.5.reconstruct_bias f4 [4]
0	0x3b337a4d	0.002738613
1	0x3b337f21	0.0027389007
2	0x3b342ad1	0.002749134
3	0x3b33f54b	0.0027459438

tails.6.w f4 [9, 3]
0	0xbd2d9d02	-0.042386062
1	0xbd2d3177	-0.0422835
2	0xbda55200	-0.08072281
3	0xbc43c919	-0.011949801
4	0xbbda554d	-0.0066630007
5	0xbdc62e58	-0.09676808
6	0xbc80c341	-0.015718104
7	0x3ce56740	0.028003335
8	0x3ccdfecd	0.025145913
9	0xbc81aaf7	-0.015828593
10	0xbd6f66c5	-0.058447618
11	0xbd948a26	-0.07252912
12	0x3c4cab52	0.012492018
13	0xbdc6f727	-0.09715109
14	0x3c3071d6	0.010769328
15	0xbd5199ec	-0.051172182
16	0x3971f5ed	0.00023075166
17	0xbd5c68cc	-0.05381088
18	0x3dbf3508	0.09336287
19	0xbd0d4438	-0.034488887
20	0x3cc3578e	0.02384546
21	0x3d5c193d	0.053735007
22	0x3d2103a7	0.039310124
23	0xbde3cfbf	-0.11123609
24	0x3d65d156	0.05610784
25	0x3d18f6da	0.03734479
26	0xbdd79b93	-0.1052772

tails.6.hidden_bias f4 [3]
0	0xb70977ab	-8.193699e-06
1	0x37cc5ddd	2.4362404e-05
2	0x38b2fdee	8.5349995e-05

tails.6.reconstruct_bias f4 [9]
0	0x3a43931c	0.00074605807
1	0x3a4374da	0.0007456072
2	0x3a0fad76	0.0005480865
3	0x3a0dda1d	0.00054112246
4	0x39ae7e3e	0.00033281924
5	0x39b00e00	0.00033579767
6	0x3a5f2681	0.00085125124
7	0x3a0bd7e3	0.0005334599
8	0x3a3ebb85	0.00072758674

tails.7.w f4 [5, 2]
0	0xbdc67d6f	-0.09691893
1	0x3cfa4bd1	0.03055373
2	0x3dae370a	0.085065916
3	0xbe15e3c2	-0.14637664
4	0xbe17af92	-0.14813069
5	0x3dd4e434	0.10395089
6	0xbe27814e	-0.1635792
7	0xbc95c5bd	-0.018282766
8	0x3db04803	0.08607485
9	0xbdd9c0ad	-0.10632453

tails.7.hidden_bias f4 [2]
0	0xb61f26ec	-2.3715502e-06
1	0xb70617d9	-7.992575e-06

tails.7.reconstruct_bias f4 [5]
0	0x3b0ffbd6	0.0021970174
1	0x3b0fe333	0.002195549
2	0x3b0fe619	0.0021957217
3	0x3b0f0eb3	0.002182883
4	0x3b100b3d	0.0021979355

tails.8.w f4 [6, 2]
0	0xbe24d350	-0.16096234
1	0xbdf3be87	-0.119015746
2	0x3ceb9f90	0.028762609
3	0x3e0a3d7d	0.13500018
4	0xbc2cffe4	-0.010559056
5	0x3da7a50e	0.081857786
6	0xbde8ebb1	-0.113730796
7	0x3c1f8fbf	0.009738862
8	0xbde330d0	-0.110932946
9	0xbb63c7bb	-0.00347565
10	0xbdfbef37	-0.12301486
11	0xbe005d3e	-0.12535569

tails.8.hidden_bias f4 [2]
0	0xab51ffff	-7.460698e-13
1	0xb6670e30	-3.442994e-06

tails.8.reconstruct_bias f4 [6]
0	0x3aecc598	0.0018064259
1	0x3aef0874	0.0018236772
2	0x3aefff31	0.0018310306
3	0x3aef98ff	0.0018279849
4	0x3aef8a2f	0.0018275435
5	0x3aed9286	0.0018125332

tails.9.w f4 [10, 4]
0	0x3dbc8aca	0.092061594
1	0x3c0f333c	0.008740243
2	0xbb57d316	-0.0032932214
3	0xbcde3d42	-0.02712882
4	0xbccd1984	-0.02503658
5	0x3d2090bf	0.03920054
6	0x3dcc5dee	0.09978853
7	0xbd62cb0f	-0.055369433
8	0x3dbf8840	0.093521595
9	0xbca682e3	-0.020326084
10	0x3d27fc3d	0.041012038
11	0xbcaaa6ad	-0.02083143
12	0x3dbd6cb7	0.09249251
13	0x3d760c79	0.06007049
14	0x3dc31bf7	0.09526818
15	0xbc8d09a0	-0.017216504
16	0x3d97adfb	0.07406231
17	0x3da36ee3	0.07980134
18	0xb7591293	-1.2938533e-05
19	0xbd128724	-0.03577341
20	0xbda18e7a	-0.078885034
21	0x3bef7950	0.0073081627
22	0x3d921dd9	0.07134599
23	0xbce611a6	-0.028084587
24	0xbd30166a	-0.042990126
25	0xbcb5e203	-0.022202497
26	0xbdb56724	-0.08857563
27	0xbd2cd5e5	-0.042196173
28	0xbc407cf0	-0.011748537
29	0x3d80100f	0.06253063
30	0xbc0ba235	-0.00852256
31	0xbdc571b7	-0.0964083
32	0xbd000999	-0.031259153
33	0x391e23cc	0.0001508139
34	0x3c7958ca	0.015218923
35	0xbdc57d5a	-0.096430495
36	0x3daa11b1	0.083041556
37	0x3d0939ca	0.033502378
38	0xbdad41c2	-0.08459808
39	0x3d4d16ad	0.050070453

tails.9.hidden_bias f4 [4]
0	0x35577e6d	8.0277715e-07
1	0x308f9541	1.044704e-09
2	0x35f5a9da	1.8303356e-06
3	0xb0064d3e	-4.8858684e-10

tails.9.reconstruct_bias f4 [10]
0	0x3a8fa2f3	0.0010958597
1	0x3a8f34ae	0.0010925734
2	0x3a8f8f72	0.0010952784
3	0x3a8dcacd	0.0010817886
4	0x3a8eeb11	0.0010903795
5	0x3a9023e2	0.0010997022
6	0x3a8fbb35	0.0010965826
7	0x3a8f7fca	0.0010948118
8	0x3a8ff57c	0.0010983194
9	0x3a9023f2	0.0010997041

tails.10.w f4 [4, 1]
0	0x3d5f9168	0.05458203
1	0x3d907b58	0.07054776
2	0x3de49248	0.111607134
3	0x3e80ce86	0.25157565

tails.10.reconstruct_bias f4 [4]
0	0x3b3417ac	0.002747993
1	0x3b340115	0.0027466465
2	0x3b33acaa	0.0027416148
3	0x3b31742a	0.0027077296

tails.11.w f4 [6, 2]
0	0x3d364ee4	0.04450883
1	0x3daf7224	0.085666925
2	0xbdae20ba	-0.08502336
3	0x3d12c721	0.035834435
4	0x3d16aa05	0.036783237
5	0x3d7a3ce1	0.061093215
6	0x3d757b3d	0.059931982
7	0x3e030aab	0.12797038
8	0x3d64738a	0.05577425
9	0xbd187303	-0.03721906
10	0xbd548f48	-0.051894456
11	0x3cdcf62f	0.026972858

tails.11.hidden_bias f4 [2]
0	0x38ca68ee	9.651655e-05
1	0x3938d7be	0.00017627978

tails.11.reconstruct_bias f4 [6]
0	0x3aeffa15	0.0018308783
1	0x3af03793	0.0018327109
2	0x3af02191	0.001832055
3	0x3aef966b	0.0018279081
4	0x3af03bc2	0.0018328356
5	0x3af04245	0.0018330297

tails.12.w f4 [5, 2]
0	0xbe019211	-0.12653376
1	0x3e37b794	0.17941123
2	0x3dd7d3f2	0.10538472
3	0xbc70f1cc	-0.014706086
4	0xbdb152d9	-0.0865838
5	0xbe36938a	-0.17829719
6	0x3e353ea5	0.17699678
7	0x3e4a933a	0.19782725
8	0x3df4f11a	0.11960049
9	0xbd52763e	-0.051382296

tails.12.hidden_bias f4 [2]
0	0x39825b12	0.00024863385
1	0x392401a4	0.0001564087

tails.12.reconstruct_bias f4 [5]
0	0x3b0fc607	0.0021938102
1	0x3b100bb1	0.0021979625
2	0x3b0f57a5	0.0021872309
3	0x3b0e9f3e	0.0021762396
4	0x3b10073e	0.0021976973

tails.13.w f4 [5, 2]
0	0x3e2e6bf7	0.17033373
1	0xbe01ece9	-0.1268803
2	0x3e41a66a	0.18911138
3	0xbde19651	-0.11014999
4	0x3d7731f3	0.06035037
5	0xbd97f655	-0.07420031
6	0x3e0baaaf	0.1363933
7	0x3dc3a6df	0.095533125
8	0x3ded3b1e	0.11583541
9	0xbe1632a8	-0.14667761

tails.13.hidden_bias f4 [2]
0	0x38f4ef29	0.00011679374
1	0xb9012e61	-0.00012319676

tails.13.reconstruct_bias f4 [5]
0	0x3b0d6ce6	0.00215798
1	0x3b0d5f69	0.0021571761
2	0x3b0f9eaa	0.002191464
3	0x3b101c6c	0.0021989597
4	0x3b0e0cc5	0.0021675092

head.w f4 [14, 5]
0	0xbd5149fe	-0.051095955
1	0x3d8f42f5	0.06995193
2	0xbd2e7571	-0.04259247
3	0xbb44230b	-0.0029928114
4	0xbc48f28b	-0.012264858
5	0x39ee9d05	0.00045511886
6	0x3d1dffa6	0.038573883
7	0xbd3ab92c	-0.04558675
8	0xbd545eef	-0.05184835
9	0x3c065238	0.008198313
10	0xbc8e8f9a	-0.017402459
11	0x3d7432a9	0.059618626
12	0x3d2b28fb	0.04178713
13	0xbd85c658	-0.06531972
14	0xbce329f3	-0.027729964
15	0x3d3535fc	0.044240937
16	0xbd1d3754	-0.038382843
17	0xbcbc26d8	-0.02296774
18	0x3d7133a4	0.05888714
19	0xbd2afedf	-0.04174697
20	0x3d60549b	0.054768186
21	0x3c5dfec1	0.013549508
22	0xbc7a2e93	-0.015269893
23	0x3c5b2632	0.013375806
24	0xbb1104d8	-0.0022128131
25	0x3cdf04a5	0.027223894
26	0x3d7a46dc	0.061102733
27	0xbc2ffc23	-0.010741266
28	0x3d3eb3dc	0.046558246
29	0xbd63c9af	-0.055612262
30	0x3cd7edc8	0.0263585
31	0xbd4b6f2a	-0.04966656
32	0xbd8f9335	-0.070104994
33	0x3bb776d2	0.0055988813
34	0xbc8c8642	-0.017153863
35	0x3d74c038	0.059753627
36	0x3cd51e95	0.02601556
37	0x3c9d3ee6	0.019195031
38	0x3d71efd7	0.05906662
39	0xbca0c6ca	-0.01962604
40	0xbd8f24dd	-0.06989453
41	0x3c810463	0.015749162
42	0xbd10cb79	-0.035350297
43	0xbce5e988	-0.028065458
44	0xbd019a49	-0.03164128
45	0x3cb36fae	0.021903839
46	0x3cfd6398	0.030931279
47	0xbd86b244	-0.0657697
48	0xbbc41f08	-0.0059851445
49	0xbd683f8a	-0.05670122
50	0x3cc74f36	0.024329763
51	0xbd33460d	-0.043767978
52	0x3d28264f	0.04105216
53	0x3d630086	0.05542042
54	0xbd18771a	-0.03722296
55	0xbd26a5d1	-0.04068548
56	0x3d4e8fce	0.05043011
57	0xbd320a1f	-0.043466683
58	0xbcaca795	-0.021076003
59	0x3d6f2162	0.058381446
60	0x3d690fd7	0.05689987
61	0x3be6b0fc	0.007040141
62	0xbcecb46b	-0.028894624
63	0xbd91504b	-0.07095393
64	0xbd80f2eb	-0.06296333
65	0xba6170e2	-0.00085998897
66	0x3d706bdd	0.058696616
67	0x3d8e0a9b	0.069356166
68	0xbd3af491	-0.045643393
69	0x3c0636c7	0.008191771

head.hidden_bias f4 [5]
0	0x3593f250	1.1022876e-06
1	0x371ced4e	9.353576e-06
2	0xb5f46c81	-1.8210995e-06
3	0x34b66fe4	3.3981553e-07
4	0xafbd4103	-3.4425093e-10

head.reconstruct_bias f4 [14]
0	0xba0a341c	-0.0005272047
1	0xb8234463	-3.892592e-05
2	0x3a3ec30c	0.0007276989
3	0xb8f86e8e	-0.00011846154
4	0x3a2c40c7	0.0006570932
5	0x3a4c37e3	0.000779031
6	0x3a0c9efb	0.0005364266
7	0x3a4d038e	0.0007820659
8	0x3a4deaed	0.0007855136
9	0x3a4cb140	0.0007808395
10	0x3a498655	0.00076875585
11	0x3a4ce922	0.0007816722
12	0x39ae0379	0.00033190454
13	0x3a3d0848	0.0007211012
