models/KeyedKitsune.pt (torch, 100183 bytes, 49 tensors)

running_sum f8 [100]
000000 00 00 d3 5f ff 12 18 41 80 78 3e 34 3d 5d 1f 41
       394431.8435783386 513871.3010195568
000010 00 39 d0 30 f9 5c b5 40 a4 fd 9d 50 8c 60 90 40
       5468.9734010829125 1048.1370262800274
000020 00 fb 3b 72 68 c7 80 40 00 40 c2 95 35 d4 d5 40
       536.9259991346335 22352.83726555109
000030 81 94 a6 d9 cf c1 8c 40 00 c0 13 70 81 72 c9 40
       920.2264893545217 13029.011232823133
000040 ab f4 ce bd 09 50 b5 40 a4 40 f5 54 a1 02 77 40
       5456.038052496656 368.16438766290435
000050 00 ee 2c ec d8 ff 13 41 00 72 a0 83 a1 50 b5 40
       327670.23064014316 5456.630914714653
000060 27 64 8a cb ca 6a 72 40 00 ca ce 68 c1 e6 79 40
       294.6745105176837 414.4222190931032
000070 00 90 b0 78 f3 4f 20 41 fc 1f 07 c1 60 5b 8f 40
       534521.735722065 1003.4222431713711
000080 00 9f bb 63 5b b7 ce 40 00 b0 83 97 c0 73 13 41
       15726.713981106412 318704.14796328545
000090 80 79 50 6a 16 ed 1f 41 aa ee 2d 19 3d 16 8e 40
       523077.6038226113 962.779833182188
0000a0 00 8b a5 78 93 8f 13 41 00 b1 ee da ff 2e 20 41
       320484.8678189963 530303.9276023209
0000b0 00 c0 f0 e4 29 be 77 40 00 6c db fa d5 3c 5e 40
       379.8852281002328 120.95056029727857
0000c0 00 a0 5b 7a 9d 90 16 41 00 60 0a 75 2a 15 de 40
       369703.36949014664 30804.663393586874
0000d0 00 96 80 57 c1 e6 79 40 80 99 68 84 48 fe 63 40
       414.4222025893105 159.94635219983684
0000e0 00 c0 3e eb 44 d4 d5 40 00 89 37 da ff 2e 20 41
       22353.076858222485 530303.9262049496
0000f0 00 00 36 7c cb 17 df 40 00 60 b4 86 03 d4 cc 40
       31839.17945623398 14760.027548357844
000100 00 9a b8 f7 2f 8d 66 40 00 80 29 4f 26 7e 1d 41
       180.41210542731278 483209.57730674744
000110 00 a0 0e d2 4b 01 78 40 00 f0 2e a7 12 d4 12 41
       384.0810108729638 308484.66326498985
000120 00 c0 a1 a0 38 be 07 41 00 55 f8 a0 d0 67 c7 40
       194503.07843351364 11983.629912415985
000130 00 60 13 0c da e8 12 41 00 40 7a ce 77 8f 20 41
       309814.51179265976 542651.9032764435
000140 00 67 62 11 97 75 20 41 e0 7f 4d 92 23 3a 24 40
       539339.5339538753 10.113552638969793
000150 00 60 a8 84 d6 50 02 41 00 40 97 9f ac 8f 14 41
       150042.81477427483 336875.15585041046
000160 6a 24 54 1f bb 59 69 40 00 b0 65 ae cc f5 03 41
       202.80409208711654 163513.585154891
000170 00 e0 b4 6d 2a 15 de 40 80 98 58 bf b7 a5 14 41
       30804.66294595599 338285.9368614033
000180 00 f0 11 90 71 b5 d2 40 00 20 e7 9e 5d 67 a4 40
       19157.774418339133 2611.6828529573977
000190 00 60 01 55 5a 2c 0b 41 dc 3b aa c3 12 00 76 40
       222603.29150652885 352.0045811319121
0001a0 00 e0 43 c2 d9 22 0c 41 31 a1 c7 e3 c2 87 71 40
       230491.2198560238 280.48508050899824
0001b0 00 60 e1 3c 63 41 1b 41 00 20 13 b4 07 43 0c 41
       446552.8094534874 231520.96292710304
0001c0 00 10 de d5 3e 9f 19 41 00 50 47 6a e4 d6 b2 40
       419791.7088549137 4822.892246682197
0001d0 00 84 51 8d 37 4c 1a 41 00 9c 1a b2 90 60 b5 40
       430861.88800626993 5472.5652176504955
0001e0 00 80 e8 83 b8 71 c9 40 00 e0 a4 7d 89 bd 11 41
       13027.441525518894 290658.3726992607
0001f0 36 b9 15 e7 95 12 6b 40 e8 dd 01 16 0e ab 53 40
       216.58079866640918 78.67273473913485
000200 00 10 c9 d1 10 63 78 40 00 1a 6c 2b 5f 3b ab 40
       390.1916063169483 3485.6858781606425
000210 00 f0 2e 25 de 08 d2 40 00 90 8a c3 c4 13 76 40
       18467.471019491553 353.23553804517724
000220 00 30 f5 99 20 a0 13 41 00 30 93 40 1f 39 cf 40
       321544.1503493786 15986.244158171117
000230 80 e8 d4 45 39 00 c2 40 00 a0 69 45 25 d8 1f 41
       9216.447443593526 521737.3177857399
000240 00 76 1c 83 37 4c 1a 41 00 31 0a 3d 4e 3f 15 41
       430861.87803825736 348115.55960918963
000250 00 11 24 0c 4e 3f 15 41 00 4c 20 3d d6 3c 5e 40
       348115.5118563324 120.95057609704963
000260 00 60 dc a0 bb 6d fa 40 00 00 79 66 1d 83 c9 40
       108251.72677266598 13062.229689717293
000270 88 c2 27 51 fb 57 39 40 00 a0 d3 50 aa 7f d2 40
       25.343678543288235 18942.66118326783
000280 00 c3 93 86 89 ba a4 40 00 e0 33 e5 a5 4a 18 41
       2653.2686048675096 397993.4738306999
000290 00 e0 40 8a 31 86 e0 40 60 64 cc 0f c1 30 4e 40
       33841.548126637936 60.38089177589495
0002a0 00 00 98 79 22 d6 1e 41 00 0c d7 11 97 75 20 41
       505224.6187438965 539339.5348438025
0002b0 00 18 81 27 79 bd a4 40 80 71 57 16 ce fa c1 40
       2654.7366295186803 9205.61005681078
0002c0 00 00 42 37 6c 71 c9 40 00 a0 47 83 31 86 e0 40
       13026.84543633461 33841.5472753644
0002d0 00 c0 b9 6e cb 17 df 40 00 e0 b5 1b e6 4a 6d 40
       31839.17863315344 234.34058938524686
0002e0 00 a7 b1 2a 77 be ce 40 89 50 a3 28 ff 4c b5 40
       15740.930990416091 5452.996713835871
0002f0 00 6b 83 c7 e7 ae ce 40 00 8e ab 8c d8 ff 13 41
       15709.81077616429 327670.1373731792
000300 00 5d d6 d2 2f 8d 66 40 00 30 e4 51 9c 80 c9 40
       180.41208783977345 13057.221249125898
000310 90 67 18 5b 51 c1 28 40 00 30 7c 2f 87 9a 76 40
       12.377573820809431 361.65800426970236

running_residuals f8 [100]
000000 c0 70 88 57 28 cf c3 3f b3 b6 93 8d 24 f8 09 41
       0.15475944780417272 212740.5691293977
000010 cf 26 ec 81 66 15 b4 c0 e5 08 65 18 68 64 90 c0
       -5141.400419959521 -1049.1016555582694
000020 ab aa 3a 08 72 bf 80 c0 2c 0f 6b 3d 1a c0 c1 c0
       -535.9306797583898 -9088.204999334725
000030 2b 7e 08 ad 49 29 8d c0 fc cf 4e 1e 2c 07 ab c0
       -933.1609745658401 -3459.5861687306297
000040 85 30 56 76 d6 0a b4 c0 b7 fe ed 7f 23 3f 77 c0
       -5130.837743174406 -371.9461669251136
000050 80 a4 7d 63 38 42 fb 40 ac 76 89 9b 00 0b b4 c0
       111651.52428974397 -5131.0023733057715
000060 1f 0e 06 a5 e4 dd 72 c0 0b 78 49 8f 3c 74 7a c0
       -301.86832144131944 -423.2647850866203
000070 30 bc ad 77 61 d2 d0 bf a6 c5 8e f2 0c ba 8f c0
       -0.26284062087410387 -1015.2563220171039
000080 f2 2b fe 00 c4 32 cc c0 39 d1 ee 96 99 c3 67 c0
       -14437.531280299623 -190.11249872821807
000090 c1 42 e7 b3 ee 66 07 41 4c 08 4b 82 bf 24 8e c0
       191709.83784343864 -964.5935102331073
0000a0 e9 a0 08 52 bf 11 fb 40 99 2a 4d 74 ef 54 0a 41
       110875.95752776008 215709.93178780822
0000b0 99 fe 38 85 8d 40 60 c0 ba d0 68 51 81 99 5d c0
       -130.0172754395651 -118.39851794467805
0000c0 1e c2 7d c3 51 da 6b c0 79 ce 93 de c1 9a c1 c0
       -222.82248091280138 -9013.514605022256
0000d0 65 88 5a 92 3c 74 7a c0 a6 9d be ab ea 04 63 c0
       -423.2647880112111 -152.15364634732867
0000e0 d6 a1 e9 a8 8b c0 c1 c0 99 ec 3b 7d ef 54 0a 41
       -9089.09109230425 215709.9361494526
0000f0 4f 10 63 ac a2 81 c0 c0 96 8c 8b 13 e0 7d ca c0
       -8451.270885832751 -13563.750596469541
000100 87 46 50 52 56 74 66 c0 f0 70 3c 61 69 5b db 3f
       -179.63553729704674 0.42745432372772907
000110 73 7a ff fd 5f 15 62 c0 a4 29 da e6 0f 75 eb bf
       -144.66796779535397 -0.8580398091155996
000120 70 4d cd b7 c9 2f c0 3f a2 8e bc 5d a1 eb c7 c0
       0.12645837282853334 -12247.26067311253
000130 d8 ce 5e f6 7f 35 a3 c0 f2 e6 60 8d a9 c8 04 40
       -2458.749926531553 2.5979796452710326
000140 81 4a d4 55 43 b4 07 41 92 54 c8 2c 71 67 02 c0
       194184.41690881926 -2.3005088328014347
000150 64 b9 a7 fa 54 21 b9 40 80 3c b6 bf 96 cb dd 40
       6433.331949694406 30510.35545116337
000160 1e 53 5e 92 95 fd 6b c0 54 b9 1b 07 fa 44 26 c0
       -223.924508270481 -11.13472006047656
000170 d1 c7 f9 e4 c1 9a c1 c0 67 47 80 50 31 94 fc 40
       -9013.514800283972 117059.0821535863
000180 05 b2 f4 43 36 01 c2 c0 0c 2f 8c ae e6 76 99 c0
       -9218.423948847698 -1629.7252752212253
000190 7c 33 98 af f1 43 35 c0 c9 7d 7d b8 8a 7c 76 c0
       -21.26540658441398 -359.7838673498159
0001a0 ce fe 9b f2 87 c5 60 40 e0 a5 a1 bc 34 3b 72 c0
       134.17284517734373 -291.700375205457
0001b0 f6 43 dd c7 ae cf 1a 40 7f b1 35 41 37 99 62 40
       6.702815173034642 148.78799496161443
0001c0 8e a5 7a 67 20 d8 01 41 ef 79 e0 94 1c dd 9b c0
       146180.05052689876 -1783.277911670153
0001d0 af cc 47 5a 18 05 02 41 bd c4 cf fb 72 17 b4 c0
       147619.04408225926 -5143.449154840023
0001e0 c2 a2 db 30 66 06 ab c0 3a 35 32 14 bc cb 40 c0
       -3459.1995915065936 -33.591677212253174
0001f0 56 23 a6 a3 47 2e 6d c0 69 11 5c 91 ef 6c 46 c0
       -233.44624502610048 -44.85106102939137
000200 a5 3b 33 14 54 05 62 c0 ab ef 14 5c 14 be ab c0
       -144.16651353842204 -3551.0397650282443
000210 64 67 aa fb 94 6a 9d c0 67 18 65 59 2b 52 5e c0
       -1882.6454912782292 -121.28389582512465
000220 41 5b 85 85 0d 54 4a c0 f8 4d 49 dd 4c 4b cc c0
       -52.656662645450076 -14486.60050312335
000230 5f 7d d1 e1 49 96 c2 c0 3f 19 ff b7 ad e1 4b c0
       -9516.5772039282 -55.76311397510516
000240 e2 08 23 52 18 05 02 41 0b a4 f2 db e6 f2 fc 40
       147619.04010588588 118574.42869819717
000250 f0 1a 3f 8b e6 f2 fc 40 da f0 0c 35 81 99 5d c0
       118574.4089957287 -118.39851118339303
000260 ca bc 57 ad 88 45 02 c0 e5 d5 d7 97 ca 42 ab c0
       -2.283952097168002 -3489.395689720974
000270 e6 98 5f e5 9a 95 24 c0 81 b3 18 79 8c cf c1 c0
       -10.292197387618625 -9119.097445571564
000280 be d2 d1 ef fd 5a a5 c0 f0 67 74 71 ab fb df 3f
       -2733.495970303512 0.4997356994587099
000290 63 c4 ab 34 b8 8a c1 c0 b2 7a f6 22 1b 52 3f c0
       -8981.4391073903 -31.32072657125054
0002a0 41 ec e7 7e 20 32 24 c0 87 c7 b0 6b 43 b4 07 41
       -10.097904172716996 194184.4275832737
0002b0 23 6a 17 cf 93 61 a5 c0 d2 16 aa 03 ca 86 c2 c0
       -2736.7886893574773 -9485.57823682894
0002c0 ba 99 dd 4b 01 05 ab c0 fc 20 21 40 b8 8a c1 c0
       -3458.502531933799 -8981.439457074266
0002d0 70 6c 04 b7 a2 81 c0 c0 08 96 7a fe 64 63 6c c0
       -8451.27121024413 -227.1060783762225
0002e0 2a bf af 5d 97 2e cc c0 f5 b1 98 06 0f 07 b4 c0
       -14429.182546585409 -5127.058694404074
0002f0 d2 81 6d 99 09 16 cc c0 ca 99 90 c6 37 42 fb 40
       -14380.074994743718 111651.48597774576
000300 7f 5f 94 61 56 74 66 c0 f0 43 ba ef 3f 3c ab c0
       -179.63554457644565 -3486.124875851434
000310 58 17 21 d6 a7 0a 0b c0 cc 89 42 6b 2b c2 5f c0
       -3.3802029351090077 -127.0339000844753

running_squared_residuals f8 [100]
000000 92 a2 43 ae 3a bd 06 40 af 79 25 09 52 d0 01 41
       2.8423970808401657 145930.25446600976
000010 c4 53 79 e1 32 5f 6f 40 45 a5 3d 80 f1 53 73 40
       250.97496102997513 309.2464601905852
000020 97 ff 4f e0 4c 4a 41 40 61 e6 a7 e7 db af 7e 40
       34.580471076070516 490.991187721118
000030 ec 53 1c 3f cc af 60 40 74 07 aa 98 07 62 61 40
       133.49368243725564 139.06342728813945
000040 0c 47 a3 a1 a5 84 6f 40 e9 7f 4b 8e 41 fe 6a 40
       252.14521867647306 215.94550242181802
000050 4c a1 49 7f 14 24 f2 40 64 12 2f 7a d5 aa 6f 40
       74305.28107607848 253.33855923837393
000060 5e b0 9c 0d 42 c5 65 40 a0 ce 1c 54 40 b4 3c 40
       174.16431313136394 28.704106575997343
000070 7f 46 14 d0 e1 b9 fa 3f 6a 1d d6 bd e1 0a 73 40
       1.670381367501619 304.68011268271096
000080 ab 07 f4 12 7c 9b 99 40 a3 31 e9 e2 62 1f 32 40
       1638.8711660508804 18.12260263627253
000090 f5 08 c5 4a 54 f2 00 41 31 55 f8 4b 44 09 61 40
       138826.53650862692 136.2895870065927
0000a0 11 23 fd 5e 69 1f f3 40 c0 dd 64 a4 d9 c2 00 41
       78326.58569062898 137307.20527051203
0000b0 fe e0 85 76 73 96 43 40 e6 8b b7 d8 d1 f5 13 40
       39.17539865052275 4.990058313563145
0000c0 60 93 ed 4d a6 e9 4c 40 9a cf 66 1c d9 27 83 40
       57.825387707713844 612.9810112030129
0000d0 57 f9 67 54 40 b4 3c 40 d6 20 af 42 b5 94 17 40
       28.70410659349849 5.895222703875524
0000e0 0c 44 46 a6 27 ba 7e 40 f7 03 58 a9 d9 c2 00 41
       491.63468005607206 137307.20768740747
0000f0 6c ed 9e 39 87 cc 85 40 73 1d 9c 1f ea 76 97 40
       697.5660278717237 1501.7286362069106
000100 03 34 ab a3 85 33 21 40 29 0f 7b ed ee f0 06 40
       8.600628962181878 2.8676432183437055
000110 c0 bf 55 dc a3 6a 41 40 f0 6e a0 52 9d 40 f8 3f
       34.83312563120808 1.5157750346760928
000120 59 3d 66 9e cf 22 e5 3f 98 17 e3 ae be c5 a8 40
       0.6604993909585729 3170.8724280325223
000130 d5 7e 55 3b 67 b5 61 40 97 04 6e 13 36 2b fd 3f
       141.6688515348275 1.8230496176695732
000140 e3 c4 2f e9 04 b0 ff 40 42 76 31 b2 4a 28 11 40
       129792.30693032178 4.289347442883413
000150 54 ad bd 93 ae 21 a5 40 fd d1 34 81 06 07 d0 40
       2704.840970923813 16412.10163612849
000160 3c 83 2b 4b 0a 78 51 40 ed da 95 17 fb 8d 15 40
       69.87562827348023 5.388653152963099
000170 56 b6 01 26 d9 27 83 40 35 f4 f3 80 e0 87 f2 40
       612.9810295232553 75902.0314826526
000180 f6 bb ce 0f 8b 64 7e 40 59 db 91 df 3e 6a 62 40
       486.28395062213474 147.3201749657408
000190 58 5d 2c 92 ad 51 26 40 f8 4c 09 39 56 d9 6a 40
       11.159527366557697 214.79177524391685
0001a0 36 23 a6 bf a4 46 66 40 5d e0 3a 9e 6f 99 65 40
       178.2076109166025 172.79487525462437
0001b0 af c5 a3 1a 6f 61 11 40 3d b4 4b d5 78 91 68 40
       4.345150390859472 196.5460001448245
0001c0 87 ec cf ed 0d 58 f6 40 a7 d9 49 ea 73 fc 60 40
       91520.87055961984 135.88914980338924
0001d0 31 31 5b d3 da c7 f4 40 05 37 47 d6 e7 99 6f 40
       85117.67660063949 252.80955041798748
0001e0 41 95 6b f2 de 98 61 40 c7 11 0f bf b9 06 1a 40
       140.77721520435628 6.506567940993086
0001f0 f1 94 6d 75 0b e2 51 40 b9 4d 09 43 ce d7 34 40
       71.53194938374851 20.84299105622424
000200 bd 6b 8d 97 08 fe 42 40 1c 8b 07 10 f5 e4 79 40
       37.98463720708194 414.3098297400154
000210 f3 ad 65 d6 13 9c 68 40 41 f2 5c 59 e9 0f 41 40
       196.87742156848216 34.12430874861139
000220 e2 2a 36 7b 90 3a 3a 40 89 cd c2 f7 58 eb 95 40
       26.228767109608164 1402.8368826330136
000230 31 c1 8b 5c da 98 a2 40 35 55 ad 20 6a eb 2e 40
       2380.42648731931 15.459794064673227
000240 1c 25 3b a3 da c7 f4 40 02 9a 74 b3 bc 9a f1 40
       85117.6648513269 72107.79381237182
000250 8a c6 bd c5 bb 9a f1 40 3b 94 56 d8 d1 f5 13 40
       72107.73577668719 4.990058307918896
000260 9e 8d 1d db 3e 3e 23 40 8f 55 99 9d d4 a5 61 40
       9.621573302609985 141.18220405529107
000270 0b 61 bd bc 49 12 20 40 2a ac ce 25 02 da 7d 40
       8.035718820684016 477.6255243371148
000280 82 3c 01 4d f5 30 73 40 e5 34 03 74 3f aa 05 40
       307.05988789065316 2.7081288398245413
000290 45 e6 0c e5 1f c6 86 40 fa b1 ab 74 1d fe 31 40
       728.7655735976956 17.992636958997515
0002a0 95 f1 ae 81 ec 14 16 40 0d 79 0d 04 05 b0 ff 40
       5.520433450987544 129792.31348941122
0002b0 2d 95 15 30 90 34 73 40 39 03 d4 84 5a 8a a2 40
       307.2852021067691 2373.1767946485456
0002c0 ae 9c 1e 6e 06 be 61 40 ff 81 f1 ee 1f c6 86 40
       141.93828493098175 728.7655924670979
0002d0 f2 30 56 42 87 cc 85 40 27 b1 d8 7d dc 25 24 40
       697.5660444959342 10.073947842313443
0002e0 69 d1 0e 04 e2 a9 97 40 dc 66 b2 93 90 46 6f 40
       1514.4707186045946 250.2051485523615
0002f0 05 7e 21 ff 42 a4 95 40 9e 1c f6 dd 12 24 f2 40
       1385.0654263718764 74305.17918978861
000300 a3 8d f0 a3 85 33 21 40 92 aa 79 2d 60 6e 61 40
       8.600628970255292 139.44924043429324
000310 dc 65 a0 10 a4 47 14 40 14 6a 42 8a 22 1c 41 40
       5.0699617956065275 34.21980407946481

running_corr_mat f8 [100, 100]
000000 93 a2 43 ae 3a bd 06 40 8e 8a 07 94 07 23 b0 bf
       2.842397080840166 -0.0630345093154949
000010 fe b7 de 29 31 cc 4b bf c8 c2 a0 5c d7 70 66 3f
       -0.0008483161980075147 0.0027393537793830337
000020 c7 c0 cd c1 6c 3e b2 bf 04 27 2a 00 67 cf 9b bf
       -0.07126502734695626 -0.02715836466317169
000030 21 f0 fe a1 1e 40 1e bf a0 b0 4d 29 6e 9f 74 bf
       -0.00011539637534857583 -0.005034857099286111
000040 2f 30 13 d5 97 ad 6c 3f 4b 6c 40 74 71 48 23 3f
       0.0035007443881110083 0.00014711747110216148
000050 f0 3b c1 45 da d7 a3 bf 9f da 4e e8 88 e8 6c 3f
       -0.03875619985102918 0.003528849980706752
000060 5a 80 3a 73 80 bb 2b bf 4d b1 a4 1c 49 0b b0 bf
       -0.00021158164019130754 -0.06267220448780116
000070 67 6d 14 25 82 7f 89 3e 9f f3 6f 4f 87 87 ff be
       1.8997549714674127e-07 -3.0068787022930287e-05
000080 c3 e3 09 92 48 cf c9 bf 46 48 72 28 02 42 6a bf
       -0.20163828974525985 -0.003205303397018108
000090 b5 dd 98 c5 af 64 b0 bf b1 fe e9 28 3d 67 20 3f
       -0.06403635572575335 0.00012514707164611652
0000a0 ac 95 5b 37 31 1e a4 bf 4b 1d dc b7 5a 77 b0 bf
       -0.03929284859422508 -0.06432120312466798
0000b0 7b a8 dd d1 3a 96 04 bf 4a 2b e4 fa e1 a7 9f bf
       -3.926627162694013e-05 -0.030913859308422866
0000c0 39 44 88 18 19 cc c4 3f 0b 1d 5c a4 60 29 c7 bf
       0.16247857759347697 -0.18095024133092638
0000d0 da 78 a2 1c 49 0b b0 bf f3 ac e5 17 93 e9 9e bf
       -0.06267220448578162 -0.030187891324584503
0000e0 c4 cb 7a ef 68 cf 9b bf 10 e2 36 b6 5a 77 b0 bf
       -0.027158393494300062 -0.06432120274156028
0000f0 12 fd d7 a8 e6 03 c3 bf f6 37 7b 32 3e db c5 bf
       -0.14855654949494884 -0.17075326409252484
000100 99 7e 9f b8 df 9e a4 bf bf a1 88 88 6a 1e 8f bf
       -0.040274611746778884 -0.01519473294418183
000110 8e 06 52 5f 25 37 15 bf 61 15 0e 63 18 fb 5c be
       -8.093038180059296e-05 -2.699051132898443e-08
000120 10 b9 42 25 a8 7f 8c 3e b1 70 ef 30 ff c9 91 3f
       2.1233155911765615e-07 0.01737211929490518
000130 25 0f 75 8b 2d 92 70 bf e2 7c 9d fd b8 21 9a 3e
       -0.004045656117629003 3.893931058620009e-07
000140 b6 a3 4e e1 6c 9a b0 bf f4 c6 95 dd 3f 9d b4 be
       -0.06485634327567777 -1.2287053919559804e-06
000150 79 03 24 d1 f6 a2 a3 3f 86 14 60 77 7f d6 b0 3f
       0.03835269263254921 0.06577297844349247
000160 72 60 96 ca 3f 18 fb be c6 d6 ce df 1c 42 d1 3e
       -2.5839541796552177e-05 4.114688178560253e-06
000170 ef 30 3d a4 60 29 c7 bf cc e9 38 46 6c 3c a5 bf
       -0.18095024127467904 -0.04147661549764656
000180 c5 db c3 eb f6 55 7b 3f 85 01 b0 9c d6 db 92 3f
       0.006673779044141297 0.018416741670081577
000190 c6 cb 1c 0b 3b b6 e3 3e b7 2b 60 a8 a1 5b de be
       9.399337020354447e-06 -7.237895834686967e-06
0001a0 8a db e0 1a c5 f5 9f 3f dd 72 b6 d2 9a 1d 02 bf
       0.03121097542335919 -3.455284817308554e-05
0001b0 8b c7 ee 79 8b 9f d8 3f 6f d1 2b 5f 6e 3b d8 3f
       0.3847378435849513 0.3786273888975051
0001c0 ff 68 0b c3 bd 58 aa bf 98 ca a4 d2 24 5f 94 3f
       -0.05145829206385776 0.019894194943115368
0001d0 e0 c8 18 29 67 ee a9 bf 88 51 c0 51 46 d8 53 3f
       -0.05064699532194239 0.001211231871825454
0001e0 36 e9 73 eb 30 62 74 bf 7f ee ff f4 31 b6 b2 3e
       -0.004976454823230994 1.1153042187563248e-06
0001f0 c8 f7 dd 53 ca bc e4 be bd ff 76 3b 0c 33 e4 be
       -9.888392579201255e-06 -9.631827068257046e-06
000200 ae af 57 1b c9 f8 06 bf aa ca 05 c7 87 68 b2 bf
       -4.381526688831905e-05 -0.07190750702811025
000210 38 13 e5 58 0a 7c 9a 3f 25 25 5e 71 da 5a 17 bf
       0.02586380164690924 -8.909185666374339e-05
000220 26 76 c5 e4 f7 30 74 bf 79 56 76 b1 4e 4e 8d 3f
       -0.00492951234295228 0.014309515753477374
000230 2d cf d7 be 81 bd 9f 3f 13 73 8d 1d 09 62 c3 3f
       0.030996348641522054 0.15142930930132845
000240 4e 2d fe 22 67 ee a9 bf 58 4a f3 eb 7c 0e a5 bf
       -0.05064699461135068 -0.04112615947964987
000250 92 8f 0c bc 7c 0e a5 bf 9e 8f ec fa e1 a7 9f bf
       -0.04112615390320608 -0.030913859310330964
000260 3a f2 8d ef ec 39 2f 3f 85 43 fc 69 15 5e 74 bf
       0.00023823754579756375 -0.004972537659129088
000270 85 20 6a e5 7b da c9 be 1f 28 e4 bb d8 06 7b 3f
       -3.0819717651877362e-06 0.006598326317780261
000280 04 f1 f5 97 79 d4 aa bf 0c 02 5c f2 9e 16 ca bf
       -0.05240230541218874 -0.20381533464389212
000290 dd dc 35 5e 97 46 c8 bf 65 0b 0f 66 d2 f5 de be
       -0.18965427494160894 -7.3814968297194755e-06
0002a0 f4 45 2b c0 68 4f a3 3f ed 65 81 e0 6c 9a b0 bf
       0.03771521898091726 -0.06485634308901185
0002b0 47 d3 5e 92 7f d4 aa bf e1 12 cf b1 d9 bd 9f 3f
       -0.05240248357532678 0.03099765918502129
0002c0 1e 7d d4 19 3e 61 74 bf c6 49 f4 5d 97 46 c8 bf
       -0.004975550252566378 -0.1896542748223295
0002d0 80 5d 9f a8 e6 03 c3 bf 03 bf 57 9d 96 e4 a4 bf
       -0.14855654939195162 -0.040806490618591006
0002e0 bb 1c b7 51 12 c6 c6 bf 23 f4 da a0 b5 fb 65 3f
       -0.1779196642876054 0.0026835009983572507
0002f0 33 4d 13 c6 57 b4 8b bf c7 6d da e7 d9 d7 a3 bf
       -0.013527570469170946 -0.03875618891944615
000300 a7 b5 9a b8 df 9e a4 bf 31 c1 d7 11 7f e0 74 bf
       -0.040274611744602944 -0.005096908918389696
000310 bd 29 27 62 bd 3a b9 be 25 62 69 46 4f ab 16 bf
       -1.503792539924762e-06 -8.647605282286664e-05
000320 8e 8a 07 94 07 23 b0 bf af 79 25 09 52 d0 01 41
       -0.0630345093154949 145930.25446600976
000330 47 b8 46 9b bb 77 ac c0 8c 52 89 cc e7 f2 85 c0
       -3643.8664190387676 -702.3631830910031
000340 ba 16 eb ad ad 2a 76 c0 05 60 7e fb 8e ad b6 c0
       -354.6674021895557 -5805.558524988596
000350 a5 34 af 1a 62 45 83 c0 55 96 96 2b 79 99 a1 c0
       -616.6729024589482 -2252.736660676814
000360 7f 29 3b db 58 66 ac c0 23 e1 71 83 b4 d6 6e c0
       -3635.17354760057 -246.7095353340347
000370 75 7c bf e9 09 c4 f1 40 56 0b d5 e1 22 67 ac c0
       72768.61956738106 -3635.568129212984
000380 97 44 f1 00 21 b0 68 c0 ac 05 1c b0 dc 0c 71 c0
       -197.50402876970904 -272.80387888857035
000390 ee 84 65 91 72 93 f2 3f 87 af be c2 2c 03 85 c0
       1.1609979323914632 -672.3968558213536
0003a0 16 1e 8b be 2a 92 c3 c0 ea 27 8f bc fb ee 69 c0
       -10020.333939923945 -207.4682295604719
0003b0 d3 d4 78 ca f2 d9 00 41 97 eb b9 47 83 29 84 c0
       138046.34886328 -645.1891016507169
0003c0 35 8a a5 ae 16 b8 f3 40 90 6d 7b c1 e9 87 00 41
       80769.41763833987 135421.21947370144
0003d0 47 68 bf a4 8e c4 5c c0 ae a0 aa a3 ba ae 53 c0
       -115.07120627109644 -78.73014156020028
0003e0 fc 36 53 fd a8 02 67 c0 79 34 1d ab 68 76 b6 c0
       -184.08312860730064 -5750.408860993682
0003f0 98 b4 47 b2 dc 0c 71 c0 1f df 2e 3c 90 35 5a c0
       -272.8038809586519 -104.8369284112673
000400 08 9f e4 39 b8 ad b6 c0 c5 a0 76 c3 e9 87 00 41
       -5805.719633377863 135421.22044110872
000410 df 00 7c 23 bb 04 b5 c0 3a c0 e4 e4 c8 62 c2 c0
       -5380.731010198796 -9413.569485277043
000420 b8 0a 3f 8a dc 82 5d c0 bc 11 5d ba f5 86 d5 bf
       -118.04471069485123 -0.3363622970539628
000430 9c 1b e5 2e f4 cf 5c c0 0c 48 4c 75 6a 66 f1 bf
       -115.24927875875295 -1.087503870196545
000440 9c c0 87 a0 f7 a0 ce bf 3c ba df f7 b8 d6 be c0
       -0.23928733194725715 -7894.722532256095
000450 eb fb c4 fb 7d 8e 98 c0 f8 13 a5 e7 9b 07 f9 3f
       -1571.6230307368048 1.564357666838303
000460 f7 52 24 28 18 14 ff 40 35 96 76 2c c5 30 1b c0
       127297.50980026634 -6.797627157915078
000470 54 85 4c 46 d8 0c a4 40 65 94 8e d7 b9 af c4 40
       2566.422411338115 10591.451890776118
000480 f1 72 98 e1 c9 ff 60 c0 a3 79 7b 96 1d 58 12 c0
       -135.99339370513147 -4.5860503685820815
000490 1a ab 86 b2 68 76 b6 c0 98 1b a3 e7 55 d2 f4 40
       -5750.408974091313 85285.36905203608
0004a0 8c 6e e5 cd 3c 0c b7 c0 4d ca 8a c0 7b f2 92 c0
       -5900.23751672696 -1212.6208516775107
0004b0 ad fb f7 a3 f1 7e 1f c0 d2 d4 58 98 1b 7c 6d c0
       -7.873968660364807 -235.8783685431468
0004c0 b3 83 4d 7c fd 85 4d 40 00 bb 87 df eb 7f 67 c0
       59.04679826531301 -187.99754311094148
0004d0 7a 43 a5 6e ba 2a 13 c0 f0 64 99 3b 6c 96 56 40
       -4.791726807438744 90.35035600643073
0004e0 37 b1 ce 0f 2f f8 f9 40 75 78 cc cd bd aa 94 c0
       106370.94135922646 -1322.6853553722879
0004f0 66 3b 2f e4 91 a1 f7 40 ee 2e e7 63 8e 7c ac c0
       96793.11820910647 -3646.2781059498584
000500 01 e0 3b ee 58 97 a1 c0 e0 3e 1f 54 01 0e 32 c0
       -2251.673692580313 -18.054707772854158
000510 72 c9 df 1e 0b 27 62 c0 b5 eb 26 6e 2e 58 4a c0
       -145.22010749538782 -52.68891693973948
000520 03 19 17 df 92 5b 5e c0 52 f1 a4 f6 32 00 a2 c0
       -121.43083932166705 -2304.099537996729
000530 a9 35 3a 7f 2b f4 96 c0 59 16 c2 b1 a5 87 58 c0
       -1469.0424775214435 -98.11948818162763
000540 be 1b 77 67 83 3b 38 c0 e5 28 c6 e8 9b aa c3 c0
       -24.232473818377677 -10069.218041200607
000550 3f 30 e5 c9 0a b0 b7 c0 73 49 db 68 cf 94 40 c0
       -6064.042143177298 -33.16257963855141
000560 48 3a be 2b 92 a1 f7 40 be fb f5 d9 45 d9 f2 40
       96793.13567946211 77204.36571310365
000570 68 a3 86 9b 46 d9 f2 40 8b 42 99 96 ba ae 53 c0
       77204.41297019797 -78.7301384445838
000580 35 0c ef 1f ce 77 08 40 90 d4 1c 00 1e c6 a1 c0
       3.058498620493561 -2275.0585946092106
000590 64 43 be 71 19 ff 30 c0 ec f4 48 f2 62 ca b6 c0
       -16.996481999350536 -5834.386509475513
0005a0 2c b8 a4 37 3c 61 9b c0 dd 30 00 d0 66 5d a6 bf
       -1752.3088060128603 -0.043681347742763534
0005b0 27 08 48 81 77 59 b6 c0 05 5b 0d c5 66 3a 44 c0
       -5721.466816427222 -40.45626128341795
0005c0 b4 62 fe ab a9 aa 17 c0 ca c3 5c 2c 18 14 ff 40
       -5.916662871743643 127297.51083065491
0005d0 8e ec 18 ca 2e 65 9b c0 db 03 bd b0 c1 a8 b7 c0
       -1753.2956928152448 -6056.7566030630505
0005e0 da ee ab f0 89 96 a1 c0 14 f0 ab 8d 77 59 b6 c0
       -2251.2694143036906 -5721.46700548755
0005f0 b4 53 3f 2d bb 04 b5 c0 32 8d 85 82 66 44 63 c0
       -5380.731159170089 -154.1375134094647
000600 c3 e7 8b fb b9 90 c3 c0 95 67 bb 39 46 62 ac c0
       -10017.452989090123 -3633.137159210581
000610 d5 10 51 9d bf 7e c3 c0 d8 3c 0f 16 0b c4 f1 40
       -9981.496988423556 72768.69288562553
000620 43 d4 c3 9a dc 82 5d c0 62 ee 9e e3 62 bf a1 c0
       -118.04471463321629 -2271.693142859077
000630 00 52 05 6b e4 9f 20 c0 1a 1d 3c a1 61 8a 59 c0
       -8.312289566420986 -102.16220885153271
000640 fe b7 de 29 31 cc 4b bf 47 b8 46 9b bb 77 ac c0
       -0.0008483161980075147 -3643.8664190387676
000650 c4 53 79 e1 32 5f 6f 40 82 04 3a bd 24 bc 3a 40
       250.97496102997513 26.73493559519239
000660 ed 0d a7 fa 71 dc 46 40 e9 ab 45 cb 17 d5 70 40
       45.72222836644128 269.3183090898079
000670 fa 54 3b 5a d5 98 34 40 aa 5d b4 7b 01 79 64 40
       20.597005500302636 163.78143105724058
000680 f4 38 32 96 b5 3a 6f 40 66 2f ac 5f 02 50 28 40
       249.83466634568288 12.156268110054679
000690 c7 a4 7e 44 ae 4d a0 c0 f9 a7 e1 c3 ff 39 6f 40
       -2086.8403663231034 249.81247133325067
0006a0 45 c6 10 b2 0f fc 26 40 39 59 eb eb ea 98 43 40
       11.492307247684161 39.19466923705699
0006b0 ee 1c 82 7b 90 7c ac 3f 34 fc c9 32 67 dd 38 40
       0.05563785083455196 24.864855932534013
0006c0 4e 8f 70 a4 e5 4d 82 40 49 1a 46 47 3a 7b 28 40
       585.7371300500615 12.240679004008728
0006d0 f0 4a 01 1f 9e f8 ac c0 52 47 24 34 1d 46 36 40
       -3708.3088302997567 22.27388311277111
0006e0 ee 40 50 92 b4 9c a1 c0 c9 a1 16 d7 9a bb aa c0
       -2254.352678783346 -3421.8024222443096
0006f0 31 76 97 c2 28 e3 14 40 c3 e3 5e 8a b6 d2 2b 40
       5.221835175032127 13.911548923571791
000700 7f ee 4c 70 1d be 24 40 06 ef 49 65 0e cd 73 40
       10.371318349257534 316.8160145652804
000710 f4 88 1b e7 ea 98 43 40 d8 23 24 f6 82 c2 2f 40
       39.19466866344911 15.879905406867621
000720 96 33 6b 9a c6 d6 70 40 e8 1f e9 1f 9b bb aa c0
       269.42348710895146 -3421.802977833886
000730 d8 7b 3a b3 a7 e6 75 40 ff ed a3 37 f7 b7 81 40
       350.41594240994664 566.995711594296
000740 5c 9c 7b 72 8e e3 33 40 0d 03 70 70 4c a0 db bf
       19.888892321756757 -0.43165884952763706
000750 84 da cd 03 83 22 14 40 ac 7c 54 d5 b1 78 cf 3f
       5.033702907027536 0.24587080875878564
000760 df 5a 29 63 39 c1 bc 3f 61 7d 9e 5e b3 db 82 40
       0.11232336684166054 603.4625828153622
000770 46 20 1a b3 58 72 4e 40 ea 5a fe 0d 51 58 bd bf
       60.89333189750373 -0.11462885467185982
000780 55 21 95 fb 53 2f ab c0 65 0f 63 4c 69 26 f0 3f
       -3479.6640287974537 1.0093777641168
000790 f7 2b 31 50 aa b5 4c 40 f2 de 47 84 9f b3 57 40
       57.41926004792179 94.80661112803116
0007a0 fd a9 8f 80 86 1c 24 40 d2 81 20 2c 06 50 cf 3f
       10.055713670289146 0.24462964205396404
0007b0 ad 0f cc 69 0e cd 73 40 c9 28 f9 02 f9 99 a2 c0
       316.81601886474056 -2380.9863508093154
0007c0 3c 1b b6 09 32 8d 70 40 87 7a fc 45 22 ab 4f 40
       264.824716292718 63.33698344066675
0007d0 b3 ec 28 fa 30 70 dc 3f 7f 6f af d9 c8 f8 26 40
       0.4443476145713234 11.485907366433592
0007e0 e4 20 e2 a4 1d 53 1a c0 a9 77 d5 fc 6e d9 25 40
       -6.581167770673549 10.924674893434558
0007f0 4e 8d 91 39 38 00 d8 3f a2 ad 23 a7 75 7a 21 c0
       0.37501340505533143 -8.73917887030149

tails.0.w f4 [10, 4]
000000 42 35 33 3d 4c 7d 02 bd 0e dc 93 3d c9 93 6e bd
       0.043751962 -0.031857774 0.072197065 -0.058246408
000010 e6 f3 71 3c 9c 13 b1 bd dd 50 02 3e ff f3 ab bc
       0.014767623 -0.08646318 0.1272616 -0.02099037
000020 86 47 36 bd 40 4c 05 3d 7a d1 ea 3d b7 83 21 bd
       -0.044501804 0.03254342 0.11465736 -0.039432254
000030 27 5a 59 3c cd c9 d8 3d 1f eb 95 3d 37 de 58 bd
       0.013266123 0.105853654 0.073202364 -0.052946296
000040 54 3b 53 bd 9b 8a 65 ba 10 9f 30 3d 87 26 85 bd
       -0.05157025 -0.00087563106 0.043120444 -0.06501489
000050 d2 6c c2 bc 96 6c b1 bc 60 b3 07 3e e2 bb f8 bd
       -0.02373353 -0.021658223 0.1325202 -0.12145211
000060 0b 79 14 bc 31 68 3a bc 68 6b 09 bd 1d 12 00 3d
       -0.009062062 -0.01137738 -0.033549696 0.031267274
000070 c7 3b 4f bd 15 c5 79 bd 0f 03 15 3e d4 e5 26 3d
       -0.050594117 -0.060978968 0.14551948 0.040746525
000080 79 06 18 bd ad 08 81 3d 3b 18 4f 3c 5c 8c c7 bd
       -0.037115548 0.06300483 0.012640054 -0.09743568
000090 12 54 2e bd fd 43 d1 3d 25 6a 93 3d 59 87 18 ba
       -0.042560644 0.10218046 0.0719798 -0.0005818508

tails.0.hidden_bias f4 [4]
000000 42 6b 66 3d d6 ad de bc 5a 60 67 be c8 b0 eb 3d
       0.056254633 -0.0271825 -0.22595349 0.11508328

tails.0.reconstruct_bias f4 [10]
000000 4d 69 14 bf 53 50 14 bf 25 3f 14 bf 44 5a 14 bf
       -0.57973176 -0.57935065 -0.5790885 -0.57950234
000010 1a 68 14 bf 87 23 14 bf d4 c7 14 bf dd 51 14 bf
       -0.57971346 -0.5786671 -0.58117414 -0.57937413
000020 ab 74 14 bf b7 69 14 bf
       -0.5799052 -0.5797381

tails.1.w f4 [7, 2]
000000 0c d0 83 bd 5e 80 37 bd c3 ac c0 bd a3 cf 8d bd
       -0.06436166 -0.044800155 -0.09407952 -0.06924369
000010 45 eb c0 3d 2f d1 03 3d f7 05 a9 bd d9 33 0a 3d
       0.09419874 0.032181915 -0.08253091 0.033740852
000020 8b 86 b5 bd d5 40 03 3e 12 f1 cc 3d a8 12 a2 3d
       -0.08863553 0.128177 0.10006918 0.07913715
000030 03 44 8f 3d 44 6b c4 3d
       0.06995394 0.09590772

tails.1.hidden_bias f4 [2]
000000 02 9f a0 bb 27 71 6a be
       -0.0049017677 -0.22894727

tails.1.reconstruct_bias f4 [7]
000000 20 71 ff be 3e 25 ac be c9 23 4e bf b2 09 4e bf
       -0.49890995 -0.33622164 -0.80523354 -0.80483544
000010 90 51 4e bf 92 61 4e bf 69 44 4e bf
       -0.80593204 -0.8061763 -0.80573136

tails.2.w f4 [9, 3]
000000 a3 bf 90 be 4a 4e 18 be a2 a2 bf be 0d 42 e8 be
       -0.28271207 -0.14873615 -0.37428766 -0.45362893
000010 fe a7 c6 be 12 06 ab be fd 7c ff be 13 b8 80 be
       -0.38800043 -0.3340307 -0.49900046 -0.25140437
000020 46 8f f6 be 7e e1 6c be 3f 41 9b be e6 58 73 be
       -0.48156184 -0.23132893 -0.30323216 -0.23764381
000030 0c 75 b4 be 82 d8 89 be df dd 7b be 0b 82 d1 be
       -0.3524555 -0.26922995 -0.24596356 -0.40919527
000040 a8 47 de be dc 8f ca be 5b 32 d8 be 09 f6 bd be
       -0.43414044 -0.3956288 -0.42225918 -0.37101772
000050 53 2e b2 be 51 67 de be ad 4f b6 be 8b ac d4 be
       -0.34800968 -0.434382 -0.35607663 -0.4153789
000060 e5 d9 04 bf 01 ad 77 be ba 31 da be
       -0.5189498 -0.2418709 -0.42616063

tails.2.hidden_bias f4 [3]
000000 d7 b3 88 3d 0e 4a 06 bb f8 11 c1 3c
       0.06674927 -0.0020490917 0.023568138

tails.2.reconstruct_bias f4 [9]
000000 6d 7c 07 3e a2 5f 4b 3e cd 47 5f 3e 66 6b 28 3e
       0.13231058 0.198607 0.21804734 0.16447219
000010 eb a5 f8 3d b9 00 5b 3e ef c1 65 3e 15 04 7a 3e
       0.12141021 0.21386994 0.22437261 0.2441562
000020 27 1d 7b 3e
       0.2452284

tails.3.w f4 [6, 2]
000000 2a c9 d0 be ae 16 6a bd ef f9 8a be 1e 4f 8f be
       -0.40778476 -0.057150535 -0.2714381 -0.2799005
000010 cd 12 81 be e3 ed 92 be 8f b2 c9 be 65 86 0a be
       -0.25209656 -0.28697118 -0.39394042 -0.1352783
000020 ba 3f 62 be e8 53 9f be ea 78 cc be e1 94 25 be
       -0.22094622 -0.31118703 -0.39936 -0.16170074

tails.3.hidden_bias f4 [2]
000000 3e 3c 20 3e 4b b1 cb 3c
       0.1564798 0.024864813

tails.3.reconstruct_bias f4 [6]
000000 f1 8f ad bd c8 f8 25 bd 3c 81 85 bc 91 db da bc
       -0.0847472 -0.04052046 -0.016296975 -0.026716026
000010 1a 7e 85 bd 61 71 a9 bd
       -0.065181926 -0.082735784

tails.4.w f4 [10, 4]
000000 9b 15 ef 3d 2c d8 4c bd 01 17 c6 3d 8b 0e 8a 3b
       0.11674043 -0.050010845 0.096723564 0.0042131594
000010 97 43 92 bc e2 e0 64 3d 57 cb 19 3d 64 da da 3d
       -0.017854495 0.055878527 0.037547436 0.10686186
000020 fa 2e ee 3d df f4 cd 3b 3c 7b 8a bd 55 b7 db 3c
       0.11630054 0.0062852944 -0.06761786 0.026820818
000030 aa ce 8d 3c e5 9a cb 3c 90 b6 83 3d fd 32 af 3b
       0.01731046 0.024854133 0.064313054 0.0053466544
000040 1c f3 71 bc b3 45 3a 3d 8d 57 6b bd 87 28 95 bc
       -0.014767434 0.045476627 -0.05745654 -0.018207802
000050 ee be c8 3a df 6a 97 3d f3 a5 d4 3d 26 36 d0 3d
       0.001531569 0.07393431 0.10383215 0.10166578
000060 6a 6c 93 3d 25 6a 36 bd 2c 07 d5 3d 8c 0d ba bc
       0.07198413 -0.04453482 0.104017586 -0.022711538
000070 ad 1b b3 3d 97 ac 08 3d 1e 91 46 bd d7 35 ec 3d
       0.08745513 0.03336772 -0.04847824 0.11533707
000080 e0 d1 03 3e 02 d8 ac bd dd 1d 7e bd a8 89 84 3d
       0.1287303 -0.08439638 -0.0620402 0.06471568
000090 ca 74 b6 3d 7f a8 c8 bd f3 35 33 3c bd 43 0d bb
       0.089089945 -0.09797763 0.010938155 -0.0021555268

tails.4.hidden_bias f4 [4]
000000 59 6e 36 be c4 d0 36 3c 32 77 5f bd ae 64 ea bd
       -0.17815532 0.011158172 -0.054557033 -0.114449844

tails.4.reconstruct_bias f4 [10]
000000 38 3d 14 bf ab 6e 14 bf 3f 52 14 bf f8 78 14 bf
       -0.5790591 -0.57981366 -0.57938 -0.57997084
000010 d6 b0 14 bf fa 67 14 bf 89 40 14 bf 6f 24 14 bf
       -0.5808233 -0.57971156 -0.5791097 -0.57868093
000020 94 4f 14 bf 41 6f 14 bf
       -0.57933927 -0.5798226

tails.5.w f4 [5, 2]
000000 01 17 83 be c2 a9 5d 3e e3 7f 08 3e d7 fa 31 be
       -0.25603488 0.21646789 0.13330035 -0.17380844
000010 cb eb 4b be 07 06 95 3e 0f 34 19 be 2c 19 c3 3d
       -0.19914167 0.2910616 -0.14961265 0.095262855
000020 c8 ae 9c be 7b d2 a9 3e
       -0.30602098 0.33168396

tails.5.hidden_bias f4 [2]
000000 bf 52 e4 3e 50 00 de be
       0.4459438 -0.43359613

tails.5.reconstruct_bias f4 [5]
000000 68 ec 82 bf c1 c5 5b be 7f 90 87 bf 97 b7 89 bf
       -1.0228395 -0.21462156 -1.0590972 -1.0759152
000010 66 5a 86 bf
       -1.0496337

tails.6.w f4 [9, 3]
000000 4d f6 b0 3b b2 d9 bc 3d e2 df 9e bd fe 5d 01 3b
       0.005400455 0.092212096 -0.07757546 0.0019739862
000010 32 6b e6 3d 4e 09 32 be 64 aa ea 3d a7 a3 26 3e
       0.11250915 -0.17386362 0.11458281 0.16273366
000020 52 5d a5 bd 16 b3 9c 3d d9 1f 53 3c 4d 8b be bd
       -0.0807444 0.076513454 0.012886011 -0.09303913
000030 3a e3 dc bc 22 b9 e4 3d ba c7 14 3d f9 60 aa 3c
       -0.026963819 0.11168124 0.036323287 0.020798193
000040 c5 c2 f0 3b 62 86 23 be 17 83 7f 3c a8 4a 1d 3e
       0.007347437 -0.15969232 0.015595219 0.1536051
000050 ed 4e 0c be 13 c5 bc 3d 20 9a c6 3d 97 10 90 bd
       -0.13701983 0.092172764 0.09697366 -0.07034414
000060 f0 2a 13 3e bc 1a 58 3d ed 1d 0c be
       0.14371848 0.05275987 -0.13683291

tails.6.hidden_bias f4 [3]
000000 30 6a 10 be 6e 9f 81 be 43 b5 8f 3e
       -0.14103007 -0.25316948 0.2806798

tails.6.reconstruct_bias f4 [9]
000000 07 ac 23 bf 59 38 23 bf 4b 2f 23 bf 68 c0 23 bf
       -0.6393437 -0.63757855 -0.6374404 -0.63965464
000010 08 1c 24 bf 76 9e 23 bf b6 30 23 bf 79 82 23 bf
       -0.6410527 -0.6391367 -0.637462 -0.6387096
000020 84 4c 23 bf
       -0.6378863

tails.7.w f4 [10, 4]
000000 d8 59 c6 3c 9a ca f6 bd 90 7d 78 3b d3 39 a0 3d
       0.024212763 -0.12050362 0.0037916638 0.07823529
000010 ae cf a0 3a 76 85 67 bd ca 2a 25 bd d9 ea d3 3d
       0.0012268925 -0.056523763 -0.04032401 0.10347528
000020 9d e3 93 3d a1 40 ef 3b 5c 0c 44 3d c9 16 d7 3d
       0.07221148 0.0073014055 0.04786335 0.10502393
000030 05 57 9b bd 9f d2 8a bc 97 e8 06 3d ff 6f d7 3c
       -0.07584957 -0.016946135 0.03293666 0.026298521
000040 11 99 97 bd 75 da c8 bd ef de 86 bd ad 7f ab 3d
       -0.07402242 -0.09807292 -0.0658549 0.083739616
000050 48 c0 f7 bd 81 60 c3 bd 0f a8 b0 3d 75 b6 53 bd
       -0.120972216 -0.09539891 0.08625805 -0.051687676
000060 e0 7c cf bd bd 17 82 bd c9 2a d4 3d e6 48 39 3d
       -0.1013124 -0.06352184 0.10359723 0.045235537
000070 ef 8a 23 bd d7 2c 2f 3d 69 c8 aa bd b9 88 f9 3b
       -0.03992742 0.042767372 -0.083390065 0.0076151756
000080 75 d0 63 bd 8a ed 1c bd 58 73 47 3b 6a a8 53 3d
       -0.055618722 -0.038312472 0.003043374 0.051674284
000090 96 58 cc bb ea 20 ca bd 2e c3 a7 3b 13 f0 19 bd
       -0.006236146 -0.09869559 0.005119703 -0.03758247

tails.7.hidden_bias f4 [4]
000000 22 2b ed 3d 85 f0 27 3e 23 7f ec bc a8 29 00 be
       0.115804926 0.16400345 -0.028869217 -0.1251589

tails.7.reconstruct_bias f4 [10]
000000 10 57 14 bf 7e 68 14 bf c3 96 14 bf 59 78 14 bf
       -0.57945347 -0.5797194 -0.58042544 -0.57996136
000010 d7 44 14 bf 66 43 14 bf dc 33 14 bf 69 8a 14 bf
       -0.5791754 -0.5791534 -0.5789163 -0.580237
000020 ba 07 14 bf 44 17 14 bf
       -0.5782429 -0.57848

tails.8.w f4 [4, 1]
000000 2e ce ae 3d 51 46 5c be ff 90 4f 3d 41 1c 84 be
       0.085354194 -0.21511199 0.05067539 -0.25802806

tails.8.reconstruct_bias f4 [4]
000000 64 22 a6 bf 15 12 a5 bf 69 03 a6 bf 5c eb a4 bf
       -1.2979245 -1.2896143 -1.2969791 -1.2884326

tails.9.w f4 [5, 2]
000000 af d3 47 3d d5 6d aa be c5 c8 87 bd b8 48 90 be
       0.04878586 -0.3328692 -0.066300906 -0.2818048
000010 db 37 78 3e e0 d6 3a be 06 6e 9e 3e 4b e1 77 be
       0.24240057 -0.18246031 0.30943316 -0.24207036
000020 f3 38 6a 3e a5 f4 b8 be
       0.22873287 -0.3612415

tails.9.hidden_bias f4 [2]
000000 35 e8 ac be f2 34 19 3f
       -0.3377091 0.59846413

tails.9.reconstruct_bias f4 [5]
000000 d1 07 88 bf cd 36 89 bf 6e 75 88 bf f3 74 87 bf
       -1.0627385 -1.0719849 -1.0660837 -1.0582565
000010 1d b0 86 bf
       -1.0522496

tails.10.w f4 [6, 2]
000000 69 71 12 be c6 6f 06 be ef b0 6e be 6e b7 b7 bc
       -0.14301075 -0.13128576 -0.23309682 -0.022426333
000010 71 53 4f be c8 d3 e4 bd 90 de 73 be 5b f2 e7 bc
       -0.20246674 -0.111732066 -0.2381537 -0.028313806
000020 61 00 6b bd 64 25 cb 3b 77 2c 98 bd 82 a1 65 be
       -0.05737341 0.0061995257 -0.07430356 -0.22424892

tails.10.hidden_bias f4 [2]
000000 e8 8a cd 3e 09 b2 61 3e
       0.4014504 0.22040571

tails.10.reconstruct_bias f4 [6]
000000 e0 3b 6b bf 1c ee 6a bf 6a 68 6a bf 9c 81 6a bf
       -0.91888237 -0.91769576 -0.91565573 -0.9160402
000010 9b 74 6c bf 6a 0f 6b bf
       -0.92365426 -0.91820395

tails.11.w f4 [6, 2]
000000 fc 6c 56 ba 44 8a 3f be 00 98 1f 3e bd 29 de bb
       -0.0008179692 -0.18705088 0.15585327 -0.006779878
000010 0e 23 bd bc 0e 10 1f be 99 2f 62 3d 82 c4 aa 3d
       -0.023088004 -0.15533468 0.055221174 0.08338262
000020 6e 4d 8c 3d 97 42 71 bd 46 b9 5a 3e 2b 32 e1 bd
       0.06850706 -0.058901396 0.21359739 -0.10995897

tails.11.hidden_bias f4 [2]
000000 f7 d0 3f be da 91 30 3e
       -0.18732058 0.17243138

tails.11.reconstruct_bias f4 [6]
000000 a3 fa 69 bf 4c af 6a bf eb ee 6a bf a3 57 6d bf
       -0.91398066 -0.9167373 -0.9177081 -0.9271185
000010 e9 ab 6c bf 99 c0 6b bf
       -0.92449814 -0.92090756

tails.12.w f4 [5, 2]
000000 0e 2a cd 3e a4 1a 90 3e 98 d9 a3 bd 8f 9e 54 3d
       0.40071148 0.28145325 -0.08000487 0.051909026
000010 3d 91 4a be f9 7d 50 be 85 2f 3d 3e 1f bc 53 3d
       -0.19781967 -0.20360555 0.18475159 0.051693078
000020 eb 49 73 3d f2 8b 10 3e
       0.059396666 0.14115885

tails.12.hidden_bias f4 [2]
000000 3c 17 4d 3e 2a af 1c 3e
       0.20028394 0.15301195

tails.12.reconstruct_bias f4 [5]
000000 b8 ff 04 3f 21 23 be be 1f e7 62 bf 46 07 54 bd
       0.51952696 -0.37136176 -0.8863391 -0.05176475
000010 87 23 80 3e
       0.25027105

tails.13.w f4 [4, 1]
000000 1f 06 87 be 1c 43 67 bd 43 38 30 be af f6 15 bd
       -0.26371858 -0.056460485 -0.17208962 -0.03661221

tails.13.reconstruct_bias f4 [4]
000000 77 0d 24 3f 40 0f 04 3f 41 39 16 3f 0b 80 aa bd
       0.64083046 0.5158577 0.5868111 -0.083252035

tails.14.w f4 [4, 1]
000000 32 92 a6 bd 45 f2 df 3a a1 f9 ed 3d ba 62 05 3f
       -0.08133353 0.0017085752 0.116198786 0.5210377

tails.14.reconstruct_bias f4 [4]
000000 dd 38 93 be 96 01 cb be 6c f1 5d 3c c1 06 15 3f
       -0.2875432 -0.39649647 0.013546329 0.5821343

head.w f4 [15, 6]
000000 ba 3b c7 3c 0f 8b 21 bb e2 50 01 bb 81 7f 34 bd
       0.024320472 -0.0024649536 -0.0019732048 -0.04406691
000010 42 65 3e bd 27 73 69 bd 08 08 49 3d 75 7e a6 bd
       -0.046483286 -0.056994583 0.049079925 -0.081295885
000020 1d 91 5e 3d 4a b2 1f bd f7 46 33 bd 02 9c 2f 3c
       0.05433761 -0.03898839 -0.04376885 0.0107183475
000030 4c 35 94 bd 12 dd 8c bc 3e 0b d1 bc f9 99 7c bd
       -0.07236728 -0.017195258 -0.025518056 -0.061670277
000040 02 58 15 bd f1 79 f3 3a 61 6d 4b bd 05 5d 6d bc
       -0.036460884 0.001857577 -0.04966486 -0.01448751
000050 cd 41 5d 3d 1c ab 8f bb 6f a3 13 3d 11 2e 7e bc
       0.05401783 -0.0043844115 0.036044534 -0.015513913
000060 11 bc 3a 3d c3 89 2c 3d f6 75 10 3c f4 1b 26 3d
       0.04558951 0.042123567 0.008817187 0.040554002
000070 57 36 0f 3d 4f 3a 1b bd 63 77 72 3d e9 41 84 bd
       0.034963932 -0.037897404 0.059195887 -0.06457884
000080 31 b6 87 bb 36 f9 2b bd 70 9f 4a 3c d2 31 13 3d
       -0.004141592 -0.041985713 0.012367114 0.035936184
000090 fc c1 74 bc 13 0a 39 3b f7 5f 6e bd 1a cf c9 bb
       -0.014938828 0.0028234764 -0.058196988 -0.0061587216
0000a0 32 79 a7 bc d4 f7 48 bb 4e eb c6 3c d3 5e 22 3d
       -0.020443533 -0.0030665295 0.024282124 0.039641213
0000b0 f6 7d 10 bd c9 ca 60 3d 3c 00 ca ba db 39 f6 3c
       -0.035276376 0.05488089 -0.0015411447 0.030056885
0000c0 4f fb 0b 3d 19 6a c9 bc f5 06 91 3d ed da 2c bd
       0.034175213 -0.024586724 0.07081405 -0.04220097
0000d0 a6 2e ff bc e7 43 9b 3c c3 c0 22 3a d6 76 00 3d
       -0.031150173 0.018953277 0.00062085333 0.03136333
0000e0 af 26 81 3d 2e f3 5f 3c a5 ad c8 3c 52 1d 44 3c
       0.063062064 0.013668818 0.024496863 0.011969881
0000f0 4c 03 ed 3b 8c 83 09 3c b5 0f 54 bd 42 78 11 3a
       0.007233059 0.00839318 -0.051772792 0.0005549231
000100 7e c4 30 3d bc 4f e1 bc c4 c9 67 bd 08 84 5b 3d
       0.04315614 -0.02750384 -0.056588903 0.05359271
000110 a3 38 37 bd 0b 54 25 3d 1a 0e ba ba 2c cf 5c 3d
       -0.044731747 0.040363353 -0.0014194876 0.053908512
000120 f2 d4 83 bd e1 9a 10 bc 58 8d 6c 3d d4 6b 06 bd
       -0.064371005 -0.0088259885 0.057751983 -0.032817677
000130 4d c2 5b 3d 3e 45 1d bd 2a 9e 0c bd b4 d7 aa bd
       0.053652097 -0.038396113 -0.034330525 -0.08341923
000140 94 ea 58 3c 01 e3 5b 3d a8 27 05 bd 5d 6f 80 bd
       0.0132395215 0.053683285 -0.032508522 -0.06271241
000150 e0 42 84 bb dc d4 35 bd ed de ca 3b f7 30 40 3d
       -0.0040362924 -0.04439245 0.0061911256 0.046921697
000160 26 ce a3 bc f7 b2 ff 3c
       -0.01999576 0.031213267

head.hidden_bias f4 [6]
000000 9d c0 84 3a 00 24 01 3d 15 ab a2 bc a1 2b 90 3b
       0.0010128204 0.031528473 -0.019856969 0.004399732
000010 3b 02 59 3c dd 55 a3 3c
       0.013245161 0.019938404

head.reconstruct_bias f4 [15]
000000 eb 09 c9 be 9c 11 c9 be 44 76 a9 be 0e 39 ae be
       -0.3926538 -0.39271247 -0.33098042 -0.34027904
000010 ce c3 c8 be 82 20 c9 be 05 0b c9 be 61 39 c9 be
       -0.39211887 -0.39282614 -0.3926622 -0.3930159
000020 ea 1a c9 be 09 2a c9 be 07 36 c9 be c9 29 c9 be
       -0.39278346 -0.39289883 -0.39299032 -0.39289692
000030 15 1d c9 be 78 10 c9 be 7c 21 c9 be
       -0.3928 -0.39270377 -0.3928336
