models/kitsune.pt (torch, 99849 bytes, 49 tensors)

running_sum f8 [100]
000000 00 10 f6 eb d8 ff 13 41 00 c0 c2 6e cb 17 df 40
       327670.23043084145 31839.178635299206
000010 00 41 01 fb d5 3c 5e 40 00 c0 e5 3c 4e 3f 15 41
       120.9505603325124 348115.5594701767
000020 00 60 34 83 31 86 e0 40 80 c7 52 d4 2f 8d 66 40
       33841.547266185284 180.4120885483535
000030 00 ea 6d 8d 37 4c 1a 41 00 c0 92 6d 2a 15 de 40
       430861.8881146014 30804.662937819958
000040 00 6a 27 58 c1 e6 79 40 00 c5 b6 11 97 75 20 41
       414.42220321079367 539339.5345975459
000050 00 40 e0 ea 44 d4 d5 40 c0 a6 62 86 89 ba a4 40
       22353.07683569193 2653.268603403907
000060 00 b3 28 da ff 2e 20 41 00 e8 ad 50 aa 7f d2 40
       530303.9260917604 18942.66117427498
000070 e0 4e 29 16 ce fa c1 40 00 f0 88 8c d8 ff 13 41
       9205.610051311029 327670.1372411251
000080 00 00 fd 7b cb 17 df 40 00 c7 32 3d d6 3c 5e 40
       31839.17944264412 120.95057611426091
000090 80 f4 f8 84 48 fe 63 40 00 da e6 86 03 d4 cc 40
       159.94635246871985 14760.02755437512
0000a0 00 80 e9 4e 26 7e 1d 41 00 50 a7 78 f3 4f 20 41
       483209.5770626068 534521.7356514931
0000b0 00 e0 bf 0b 4e 3f 15 41 00 b0 2e 8a 31 86 e0 40
       348115.51147413254 33841.54811796546
0000c0 80 da f4 f8 2f 8d 66 40 80 8a 98 1b e6 4a 6d 40
       180.41210601637795 234.34058933060805
0000d0 c0 d1 34 63 5b b7 ce 40 00 80 98 79 22 d6 1e 41
       15726.71396503679 505224.61874580383
0000e0 00 70 31 a7 12 d4 12 41 00 fe 18 83 37 4c 1a 41
       308484.6632745266 430861.87802502513
0000f0 00 c0 d9 74 2a 15 de 40 00 02 67 69 c1 e6 79 40
       30804.66338199377 414.4222196601622
000100 00 4c 88 72 68 c7 80 40 00 d3 29 2b 77 be ce 40
       536.925999703235 15740.931004741695
000110 00 a0 6c 45 25 d8 1f 41 00 40 be a0 38 be 07 41
       521737.317797184 194503.07848787308
000120 00 9d 43 11 97 75 20 41 00 80 64 95 35 d4 d5 40
       539339.5337189734 22352.83724319935
000130 00 48 4f 27 79 bd a4 40 00 9d 11 2b 5f 3b ab 40
       2654.736628034152 3485.6858754638815
000140 00 6b 80 c7 e7 ae ce 40 00 20 3f 7a 9d 90 16 41
       15709.810775806662 369703.36938142776
000150 00 00 6b ce 77 8f 20 41 00 07 e2 da ff 2e 20 41
       542651.9031600952 530303.9275057018
000160 00 60 d4 8f 71 b5 d2 40 e0 96 af 45 39 00 c2 40
       19157.77440366149 9216.447439144773
000170 60 ee 0e a1 d0 67 c7 40 80 cc e1 40 1f 39 cf 40
       11983.62991511001 15986.244167542318
000180 00 70 8c 97 c0 73 13 41 00 a0 45 0c da e8 12 41
       318704.14799666405 309814.5119843483
000190 00 80 32 9f 5d 67 a4 40 00 c0 dc c3 c4 13 76 40
       2611.6828552037477 353.23553835134953
0001a0 6d 2e 5b 98 23 3a 24 40 00 60 42 6a e4 d6 b2 40
       10.113552819376503 4822.892246387899
0001b0 00 f0 ff 30 87 9a 76 40 79 11 60 55 51 c1 28 40
       361.6580057141837 12.37757365033825
0001c0 00 30 16 25 de 08 d2 40 00 50 3c d1 4b 01 78 40
       18467.471013590693 384.0810100894887
0001d0 90 cf 79 4a fb 57 39 40 00 d0 b1 84 d6 50 02 41
       25.343678145159686 150042.81479227543
0001e0 00 80 b3 d1 10 63 78 40 7c 25 17 0f c1 30 4e 40
       390.19160623662174 60.38089169149586
0001f0 00 c0 6a 9f ac 8f 14 41 00 a0 93 e5 29 be 77 40
       336875.15568065643 379.88522870698944
000200 e8 fb 05 14 0e ab 53 40 00 eb b4 78 93 8f 13 41
       78.67273426613212 320484.8678776473
000210 00 f0 51 37 6c 71 c9 40 05 14 24 1f bb 59 69 40
       13026.845438234508 202.8040919975903
000220 90 0e 0c e8 95 12 6b 40 ca 8e d5 83 a1 50 b5 40
       216.5807991252409 5456.630917880402
000230 00 b0 64 ae cc f5 03 41 00 e0 9a 7d 89 bd 11 41
       163513.58515298367 290658.37266111374
000240 80 24 b0 bf b7 a5 14 41 00 f0 04 84 b8 71 c9 40
       338285.9371953681 13027.441528908908
000250 fc a7 84 e3 c2 87 71 40 bb ab 63 cb ca 6a 72 40
       280.48508025950264 294.674510373439
000260 f7 d2 cf bd 09 50 b5 40 00 e0 fa 54 5a 2c 0b 41
       5456.038052548413 222603.2914941311
000270 00 30 ed 99 20 a0 13 41 00 83 23 d6 3e 9f 19 41
       321544.150318861 419791.70911984146
000280 00 b0 10 70 81 72 c9 40 52 8d ca c2 12 00 76 40
       13029.011232458055 352.0045802986325
000290 f9 7a d5 54 a1 02 77 40 0c e8 b2 28 ff 4c b5 40
       368.1643875445439 5452.996714765217
0002a0 00 e0 c2 a0 bb 6d fa 40 00 60 30 e5 a5 4a 18 41
       108251.72674834728 397993.4738173485
0002b0 00 4b a0 6a 16 ed 1f 41 00 f0 4a 15 9c 80 c9 40
       523077.60412709415 13057.219399802387
0002c0 99 5b fc c0 60 5b 8f 40 7b fc 5b 50 8c 60 90 40
       1003.4222430911497 1048.1370252964832
0002d0 e0 86 8d 30 f9 5c b5 40 00 a0 f7 b3 07 43 0c 41
       5468.973397107533 231520.96287465096
0002e0 00 00 d2 5f ff 12 18 41 80 61 53 34 3d 5d 1f 41
       394431.8435745239 513871.30109932274
0002f0 00 70 a8 66 1d 83 c9 40 0c 1a 0b da cf c1 8c 40
       13062.229695372283 920.2264901034664
000300 5c 24 74 19 3d 16 8e 40 00 0e 32 b2 90 60 b5 40
       962.7798337052914 5472.565219047945
000310 00 e0 f3 f3 d9 22 0c 41 00 e0 62 3e 63 41 1b 41
       230491.2441174984 446552.8109240532

running_residuals f8 [100]
000000 9d a1 87 be 26 43 fb 40 ff 07 61 ab 67 7b c0 c0
       111666.42151606684 -8438.809917572884
000010 8a b4 8b ab 65 61 5d c0 28 2f 7a 40 e2 f3 fc 40
       -117.52183045046891 118590.14074152394
000020 7f f9 29 c3 a7 84 c1 c0 86 80 5f 90 c7 40 66 c0
       -8969.310643431496 -178.0243608346247
000030 08 ae db 79 be 05 02 41 d1 dd ff 3b 07 96 c1 c0
       147639.80950103723 -9004.05651853877
000040 39 0b a7 7b 59 25 7a c0 23 c3 61 75 ce b4 07 41
       -418.3343464398527 194201.80731537295
000050 35 6b 0b 79 35 bd c1 c0 51 42 6b 70 97 3b a5 c0
       -9082.417756488177 -2717.7957795637562
000060 e7 7a 10 53 3f 55 0a 41 a8 2f e1 f0 0b cd c1 c0
       215719.91555877702 -9114.093288563032
000070 50 50 d0 c3 3d 87 c2 c0 39 0c 4b 20 26 43 fb 40
       -9486.482538260665 111666.3828840711
000080 71 3a 6f a0 67 7b c0 c0 64 82 1b 8f 65 61 5d c0
       -8438.809583571945 -117.52182367025813
000090 21 ac 8e 91 07 f9 62 c0 4f dc 00 14 7d 7f ca c0
       -151.78217389932345 -13566.977172954152
0000a0 b0 4d dd 2c cb 5d d6 bf e0 76 55 e9 a4 c4 db bf
       -0.3494747102860982 -0.43387720858105006
0000b0 2f 44 41 ef e1 f3 fc 40 fa 22 e3 b7 a7 84 c1 c0
       118590.12091185221 -8969.310299293593
0000c0 f5 86 36 81 c7 40 66 c0 48 c5 c3 78 0d 47 6c c0
       -178.0243536057457 -226.2203944991727
0000d0 07 ba 81 50 3b 35 cc c0 3a 15 1d 1a 80 6f 24 c0
       -14442.463394370874 -10.21777421574608
0000e0 7c 3c 48 bc 89 ff ec bf 48 25 69 71 be 05 02 41
       -0.9061936070810499 147639.80537633062
0000f0 88 67 a2 35 07 96 c1 c0 64 63 90 78 59 25 7a c0
       -9004.056324291756 -418.3343434944311
000100 77 b2 a5 2c 47 a5 80 c0 cd ca 07 c4 05 32 cc c0
       -532.6597531266297 -14436.045044874214
000110 11 6a 0d 21 27 46 4a c0 70 39 e1 c7 43 0f c3 3f
       -52.54806912569996 0.1489033437705518
000120 99 0e a8 5f ce b4 07 41 75 6d 71 42 c0 bc c1 c0
       194201.79670726208 -9081.502027681776
000130 b3 cc 62 77 b0 41 a5 c0 6e 36 27 fa 3d a9 ab c0
       -2720.844660842407 -3540.62104914226
000140 19 4f 26 12 b4 18 cc c0 d5 37 cc af 50 d7 6b c0
       -14385.406803883192 -222.72859945188853
000150 d8 e0 bc 81 cf 6d 02 40 98 33 20 4a 3f 55 0a 41
       2.303618444038971 215719.91119423206
000160 35 ef 1a 65 ba fe c1 c0 aa dd ba 89 29 96 c2 c0
       -9213.456210486222 -9516.324515684351
000170 10 89 74 59 6c ed c7 c0 06 24 d8 c1 71 4e cc c0
       -12250.846479956555 -14492.88872815856
000180 e8 c0 27 fb 98 79 67 c0 c4 64 eb aa e2 3f a3 c0
       -187.79992444767345 -2463.9427102623467
000190 d7 e5 19 36 5d 6a 99 c0 86 ad 88 96 b8 92 5e c0
       -1626.5910266920598 -122.29251635882801
0001a0 eb 0d a8 85 d5 7d 01 c0 d2 d5 62 bf 21 d1 9b c0
       -2.1864424173270343 -1780.2829566424375
0001b0 97 77 fe cb aa 01 60 c0 ab 9e 9b 16 12 3d 0a c0
       -128.0520992250501 -3.279819656967296
0001c0 5f a8 5e 7e 47 4f 9d c0 ce b4 76 5f 1f 35 62 c0
       -1875.819817999865 -145.66007970032518
0001d0 5a 43 6d 61 a1 10 24 c0 f6 eb 18 13 2c 48 b9 40
       -10.0324812360647 6472.172166402443
0001e0 8b 99 ae 41 1b 1c 62 c0 9e 27 d2 67 33 d3 3e c0
       -144.8783272180702 -30.825003136451066
0001f0 32 3a 57 f2 9b e1 dd 40 aa 3f c2 06 ee 53 60 c0
       30598.436666304427 -130.62280595721433
000200 1d 2f aa d9 68 1b 46 c0 c5 ec c4 f5 8c 12 fb 40
       -44.21413727578895 110888.81000225533
000210 37 e5 67 72 6d fc aa c0 7a d0 7f f4 ab 79 6c c0
       -3454.2137634723 -227.8022406097769
000220 af 00 9b ca 62 aa 6d c0 2c a0 95 33 14 0b b4 c0
       -237.32455950044593 -5131.078912116627
000230 22 fc 97 19 78 e5 24 c0 d5 d1 ed d5 cf 60 41 c0
       -10.44818191509518 -34.75634264099396
000240 97 64 8d 5c 01 95 fc 40 db e5 c8 38 e3 fd aa c0
       117072.0850957803 -3454.943792608317
000250 de 6e a4 70 27 92 72 c0 55 44 8d 93 e0 34 73 c0
       -297.1346289084594 -307.3048282163848
000260 45 ff b8 78 f7 0a b4 c0 92 d5 0a fc 93 99 34 c0
       -5130.966685831377 -20.59991431488522
000270 12 d0 88 fa e4 81 4b c0 56 10 87 a1 9b d8 01 41
       -55.0148003738433 146195.45387089503
000280 45 5b 50 00 9a fe aa c0 93 a7 3f 58 bc da 76 c0
       -3455.300783644811 -365.67098259797166
000290 f2 32 1f 56 54 9e 77 c0 5c 5e 4e 4e 26 07 b4 c0
       -377.89558994471656 -5127.149632356679
0002a0 20 3b 8c 58 fc e4 00 c0 f0 e3 65 24 79 0d e0 3f
       -2.1118094365878193 0.501644679155218
0002b0 66 1c 5f 5a 4b 67 07 41 27 07 9a c8 0e 33 ab c0
       191721.4191267222 -3481.5288742192965
0002c0 7a ee c9 73 df d1 8f c0 dd dd 4d db c3 71 90 c0
       -1018.23410756835 -1052.4412662665047
0002d0 f7 b5 62 7f 0d 15 b4 c0 dd b4 a0 87 f3 8b 62 40
       -5141.052724999833 148.37347775829303
0002e0 80 a3 42 1e c8 fd c4 3f de 74 a2 b0 54 f8 09 41
       0.1639948032145888 212746.5862473612
0002f0 1b 58 43 08 9d 39 ab c0 86 d8 33 61 f1 31 8d c0
       -3484.8067036671687 -934.2428611803487
000300 c8 9a e0 e1 c2 2e 8e c0 8a 1f 0a c7 17 17 b4 c0
       -965.8451573893772 -5143.092880852413
000310 85 f3 36 ef 22 85 60 40 0b 60 7b a9 9e 43 1a 40
       132.1605144570605 6.5660349351455904

running_squared_residuals f8 [100]
000000 64 8b 50 7c 14 24 f2 40 ec 1f a6 6f 84 cc 85 40
       74305.28035025072 697.5646660784237
000010 76 a4 29 e8 f1 f5 13 40 fc f6 d7 b1 bc 9a f1 40
       4.990180614034321 72107.79341885069
000020 2d 2d cf e7 1d c6 86 40 98 e6 b6 88 a8 33 21 40
       728.7646022973692 8.600895187689545
000030 f9 95 fe d5 da c7 f4 40 e9 8f 25 d9 d7 27 83 40
       85117.6772447451 612.9803946432631
000040 bf 77 02 31 85 b4 3c 40 a5 c8 d2 0b 05 b0 ff 40
       28.705157340147476 129792.31538656594
000050 0d 1c a6 c6 27 ba 7e 40 40 5e be 12 15 31 73 40
       491.63471093069603 307.06764482843937
000060 4a 03 77 a6 d9 c2 00 41 ef 84 81 cd 03 da 7d 40
       137307.2062816865 477.62592840760675
000070 78 e3 bd 61 52 8a a2 40 22 0f 09 db 12 24 f2 40
       2373.1609019603893 74305.17847543632
000080 42 f1 d3 66 84 cc 85 40 49 a3 c8 e7 f1 f5 13 40
       697.5646492536546 4.99018060838791
000090 ab f3 0d ca d0 94 17 40 68 98 27 ec ed 76 97 40
       5.895327717877914 1501.7323461710712
0000a0 c8 ce f9 0c c2 f0 06 40 40 62 74 45 e1 b9 fa 3f
       2.867557622312095 1.670380851084829
0000b0 1e 93 3b c4 bb 9a f1 40 76 eb fb dd 1d c6 86 40
       72107.73540837734 728.7645835572464
0000c0 c4 60 71 88 a8 33 21 40 63 5a 61 c1 fb 25 24 40
       8.60089517959603 10.074186366208954
0000d0 12 3d b4 41 80 9b 99 40 0c 3c 50 49 d6 14 16 40
       1638.875250641086 5.520348687669877
0000e0 a9 5f 45 30 9d 40 f8 3f bc 9c b3 a5 da c7 f4 40
       1.51577490669113 85117.66545449471
0000f0 cb cc 91 cf d7 27 83 40 bc bb b7 30 85 b4 3c 40
       612.9803763762114 28.705157322747013
000100 60 4b 82 dd 6a 4a 41 40 39 a1 46 a8 e5 a9 97 40
       34.581386269207314 1514.4742747341063
000110 1a 27 69 ba 6c eb 2e 40 03 83 b0 39 cf 22 e5 3f
       15.45981390508273 0.6604992033718137
000120 81 f3 12 f1 04 b0 ff 40 70 7d cd f4 db af 7e 40
       129792.30885596389 490.99120025891807
000130 ff fb 61 d6 af 34 73 40 a6 3f 30 c9 12 e5 79 40
       307.2929290606989 414.31708639952774
000140 99 3c f0 df 45 a4 95 40 2a 6c b6 1b 9b e9 4c 40
       1385.0682370697962 57.825046028207296
000150 72 fe 43 95 37 2b fd 3f 1d f4 79 a1 d9 c2 00 41
       1.8230510550200987 137307.20384588922
000160 57 96 dd 69 8c 64 7e 40 85 eb 30 45 d2 98 a2 40
       486.2842806487801 2380.410684136152
000170 39 eb bb 9e b4 c5 a8 40 fb be d2 12 5c eb 95 40
       3170.8527735447537 1402.8399155549112
000180 e2 1a 8a 1e 55 1f 32 40 a2 e7 e6 7f 69 b5 61 40
       18.122392567364734 141.66912837122533
000190 68 fd 24 f7 3d 6a 62 40 8d 72 c8 f0 e8 0f 41 40
       147.32006413673957 34.124296281695116
0001a0 a7 89 a5 3b 4b 28 11 40 d8 a1 62 2d 72 fc 60 40
       4.289349491098995 135.8889376570139
0001b0 1b 99 5b 21 22 1c 41 40 b0 d6 ee 8a a4 47 14 40
       34.21979157421648 5.069963618114045
0001c0 31 39 32 47 0f 9c 68 40 d0 dd 87 71 a3 6a 41 40
       196.8768650036741 34.83311289915184
0001d0 4c 4e 2e fc 49 12 20 40 ba db be f6 b6 21 a5 40
       8.035720711376733 2704.8573512690755
0001e0 25 2f 0e 4e 08 fe 42 40 e3 2f 7e af 1d fe 31 40
       37.9846284455546 17.992640465075862
0001f0 c3 88 af 1f 07 07 d0 40 3c 7e 46 1c 73 96 43 40
       16412.111308940464 39.17538789217039
000200 e7 c4 50 86 ce d7 34 40 d0 5b e0 5b 69 1f f3 40
       20.842995066374808 78326.58493076195
000210 4c 55 d5 ce fc bd 61 40 a5 f4 bf 48 ff 77 51 40
       141.93711034456862 69.87495630975407
000220 f1 1b cb 7e 00 e2 51 40 62 4c 2c 2a d9 aa 6f 40
       71.5312802299011 253.3390093674853
000230 cc 4b 57 8e fd 8d 15 40 76 fd 82 5d ad 06 1a 40
       5.388662551954393 6.50652071105957
000240 35 f1 f0 7e e0 87 f2 40 93 73 58 e6 d6 98 61 40
       75902.03099149915 140.77623288417507
000250 79 47 83 83 53 99 65 40 3e 0c 6c 00 26 c5 65 40
       172.79144454613177 174.16088887312975
000260 85 70 ac 4c aa 84 6f 40 90 b7 15 a6 ac 51 26 40
       252.14578851394268 11.159520330573088
000270 35 9e 95 98 80 3a 3a 40 39 96 75 ef 0d 58 f6 40
       26.22852471974166 91520.8709617489
000280 58 6b 76 fc 02 62 61 40 aa 40 64 ae 28 d9 6a 40
       139.06286452416202 214.78621596890054
000290 99 98 4a 1c 14 fe 6a 40 13 b7 f1 4a 97 46 6f 40
       215.93995489663646 250.20596835336673
0002a0 65 8c 9f aa 3d 3e 23 40 20 e5 9f 6c 3f aa 05 40
       9.621564228035092 2.708128784780129
0002b0 26 90 15 4d 54 f2 00 41 80 1e e4 4a 5f 6e 61 40
       138826.53763878456 139.44913239054222
0002c0 48 88 1a f5 d6 0a 73 40 d2 3d 7c e1 e6 53 73 40
       304.6774798427982 309.2438673833068
0002d0 69 7e a2 dd 3b 5f 6f 40 8a ea a5 e3 77 91 68 40
       250.97605783211773 196.54588491826536
0002e0 77 54 73 b0 3a bd 06 40 15 92 24 05 52 d0 01 41
       2.8423970971294312 145930.2525111592
0002f0 26 19 c3 f1 d4 a5 61 40 3c 4a 92 d7 d0 af 60 40
       141.1822441874039 133.49424341747533
000300 1e 4e ee 11 49 09 61 40 38 e0 8c cc f1 99 6f 40
       136.2901696829221 252.8107664824945
000310 58 e3 99 a0 a2 46 66 40 e3 b5 16 1a 6f 61 11 40
       178.20735197120916 4.3451503826486

running_corr_mat f8 [100, 100]
000000 63 8b 50 7c 14 24 f2 40 17 c6 0e 7f 18 27 aa c0
       74305.2803502507 -3347.5478443733987
000010 93 a8 6a 2b c1 5f 48 c0 61 66 af f3 6d bc f1 40
       -48.74808256824431 72646.87199344627
000020 08 d7 78 b8 f8 c3 ab c0 85 bb bf db ac 49 52 c0
       -3553.9857824099054 -73.15117543910863
000030 27 d2 87 84 c2 a3 f1 40 7a 17 f6 05 a8 d5 ab c0
       72252.15735609141 -3562.828170481077
000040 ea 0c 7c 56 85 2a 65 c0 90 e6 03 2a 59 ef f2 40
       -169.32877659062007 77557.57275762619
000050 b9 29 b3 2f fc 0e ac c0 f0 e0 55 6e 90 0e 91 c0
       -3591.492551421016 -1091.641045896391
000060 fd 84 a2 61 23 49 f2 40 6d ca 33 44 0c 19 ac c0
       74898.21133663128 -3596.523957842312
000070 a8 cf 8a 21 34 7d ad c0 a0 b5 8c ab 13 24 f2 40
       -3774.6018184069144 74305.22938223789
000080 39 d3 17 82 18 27 aa c0 9b 25 7d 2e c1 5f 48 c0
       -3347.547867531332 -48.74808293448151
000090 b5 a2 ad a7 4e b8 4f c0 bf 71 d8 14 ab 23 b5 c0
       -63.43990035990047 -5411.668286826868
0000a0 eb bd 84 42 a8 f1 bc bf dd f4 40 d5 11 87 e7 3f
       -0.11306239723193527 0.735237995635227
0000b0 a1 4e 44 78 6d bc f1 40 cc 52 13 b6 f8 c3 ab c0
       72646.84186201777 -3553.9857641256876
0000c0 dc 65 f3 d9 ac 49 52 c0 d1 47 5e f9 f2 5c 57 c0
       -73.15117501038861 -93.45232996184428
0000d0 cf a1 54 42 1d 7d b6 c0 35 c7 8a 94 34 e1 0c c0
       -5757.114293374542 -3.6099635701038104
0000e0 38 f0 89 74 6a fe e5 bf e1 5f b6 5e c2 a3 f1 40
       -0.6873066211842405 72252.14812314465
0000f0 30 8e c8 ff a7 d5 ab c0 54 d9 66 55 85 2a 65 c0
       -3562.8281233476227 -169.32877607429202
000100 b2 e6 2f e7 d3 fa 6a c0 ff 6f fa 3c 31 77 b6 c0
       -215.8383670745439 -5751.192336704581
000110 1e 0a 36 c2 97 90 34 c0 19 5f 5b 57 04 fe c2 bf
       -20.56481565303158 -0.14837698235964394
000120 65 b2 e1 1e 59 ef f2 40 5f ad 68 9e c7 0e ac c0
       77557.57003946004 -3591.3898804389605
000130 5e 74 4a aa 14 11 91 c0 9d ac 93 99 f2 02 96 c0
       -1092.2701808579945 -1408.7369139741998
000140 be 6f 7e db 92 5d b6 c0 11 48 06 46 68 21 5c c0
       -5725.573661711007 -112.52198935140065
000150 ba a6 b7 c3 e0 86 ef 3f ee 0c 45 5e 23 49 f2 40
       0.9852145979504805 74898.21051507044
000160 eb ad b3 fa 33 6a ac c0 9f 81 42 5b 7d 86 ad c0
       -3637.1015220784952 -3779.2448368819455
000170 4e 03 d9 fb 71 d4 b2 c0 43 bc 34 2a 51 80 b6 c0
       -4820.445249141032 -5760.317050262415
000180 6e 73 12 1e 50 46 5f c0 88 2d 59 ef 18 f6 8a c0
       -125.09863998224111 -862.76217527075
000190 12 26 4f 2b da e4 85 c0 76 1b bd 09 d2 8f 4b c0
       -700.6065279181951 -55.12359735234979
0001a0 e7 79 e1 05 01 59 10 c0 02 26 d5 7c c6 d1 89 c0
       -4.086917964827513 -826.2219177868103
0001b0 2c 84 69 88 6f dd 4c c0 6b a2 0e 16 ab 0f 14 c0
       -57.72996621277011 -5.015301079409805
0001c0 2b 10 88 43 4d 57 8e c0 32 e3 0c 3c af c0 50 c0
       -970.9127264623579 -67.0106954694609
0001d0 e1 e0 f0 7e c0 ab 24 c0 0f 8e 0d 5b 56 16 92 40
       -10.335453001884561 1157.5843317144352
0001e0 a8 68 ce 6c f1 19 52 c0 13 0c 3c 99 b8 da 38 c0
       -72.40536041409598 -24.85437925067897
0001f0 25 e6 e3 03 95 eb a4 40 33 42 3b 2b a4 82 51 c0
       2677.791045305103 -70.04127007281276
000200 53 16 52 6e 86 44 40 c0 80 00 e5 82 e1 c6 f1 40
       -32.535352506715434 72814.09445667453
000210 03 fb 83 56 77 59 95 c0 33 0d 4d b0 4a e1 54 c0
       -1366.3665409681278 -83.52018363499228
000220 7a 31 42 82 50 2c 56 c0 35 07 32 a9 ad 42 a0 c0
       -88.69241386856257 -2081.339181483631
000230 73 87 5d 2b b9 0d fc bf 2e 85 f0 e5 29 c1 26 c0
       -1.7533504194220455 -11.377272782907848
000240 95 e6 92 ae 61 4b f1 40 e6 54 07 84 c6 5a 95 c0
       70838.10512056419 -1366.693863024289
000250 56 a3 5d d9 b9 39 5d c0 a5 ef c2 35 13 91 5e c0
       -116.90196832794513 -122.26679748570184
000260 75 bc 6f 1c 56 42 a0 c0 69 a1 7a 68 4b c0 0c c0
       -2081.168185703044 -3.5938938295768605
000270 7e d7 26 75 9e ce 2e c0 8d ab 9a a3 b4 3b f1 40
       -15.403552685729434 70587.2899424268
000280 0b bc e6 82 ea 5d 95 c0 2a 9e 49 4c d1 7d 62 c0
       -1367.4790149738571 -147.93179907206041
000290 d6 fe 58 2e 22 45 63 c0 40 42 95 8e 01 40 a0 c0
       -154.16042249090123 -2080.003040947282
0002a0 81 e8 6c 61 34 aa 05 40 0e 60 af 56 a4 31 9c bf
       2.7081077205048705 -0.02753311900218596
0002b0 6e 77 ae f4 9e 67 f2 40 63 51 bb a8 4c 8e 95 c0
       75385.93473669674 -1379.574862410395
0002c0 f9 98 fe bd 4c 87 7a c0 90 37 86 f7 e1 9c 7b c0
       -424.4562358803956 -441.8051676981786
0002d0 bd 8b b4 1c ae 4d a0 c0 72 40 d3 24 0f 19 4d 40
       -2086.8400627537326 58.195774653578056
0002e0 2e 29 42 4b 18 d8 a3 bf bc 04 0b dc 09 c4 f1 40
       -0.03875804823572292 72768.61622144555
0002f0 bb 74 5d 4d 2c 97 95 c0 09 e0 48 1d 7d 55 78 c0
       -1381.793263874292 -389.3430455061612
000300 56 3c f3 b5 ef 58 79 c0 75 3b 2a 89 cb 50 a0 c0
       -405.5585231305498 -2088.39753086067
000310 3f a4 e6 b4 1e b8 43 40 64 0e ac 4d 48 29 08 c0
       39.43843709241673 -3.0201574390537633
000320 17 c6 0e 7f 18 27 aa c0 eb 1f a6 6f 84 cc 85 40
       -3347.5478443733987 697.5646660784236
000330 b8 c2 19 ee 51 45 3e 40 63 01 97 e8 ba c0 ab c0
       30.27078140381738 -3552.3650557698434
000340 da 47 f8 4a a4 1e 86 40 df ad bb 21 23 2a 46 40
       707.830221118634 44.32919713653586
000350 74 14 cd 31 94 2f b1 c0 57 1c 6a ef 1b 11 83 40
       -4399.578884904378 610.1386402406596
000360 a9 10 f5 5b 76 19 55 40 00 2d f6 37 c4 9f b5 c0
       84.39784907276284 -5535.766478906618
000370 17 b6 04 f3 d3 27 7d 40 bd 00 d7 32 10 e2 6d 40
       466.4892454322848 239.064477367332
000380 31 31 80 8c 72 3f b5 c0 92 53 36 ec 4e b2 7b 40
       -5439.447456371317 443.14426823827046
000390 ce 06 17 dd 92 ac 83 40 24 9e 1b ff 17 27 aa c0
       629.5717107581092 -3347.546868193678
0003a0 bc 07 3d 6b 84 cc 85 40 63 dc 4c eb 51 45 3e 40
       697.5646576660142 30.270781236901154
0003b0 f7 f6 da 66 8a ca 3f 40 bd fc 3c f0 d3 26 8c 40
       31.791174343546086 900.8534855618124
0003c0 6e 3e 5a 6c 6a cd dd bf 42 af e7 8e fe 0e cb 3f
       -0.4656625803117781 0.21139509179863053
0003d0 bd ee 3c a7 ba c0 ab c0 cd 43 5d 46 a4 1e 86 40
       -3552.364557174819 707.8302123342816
0003e0 9b cc 32 20 23 2a 46 40 78 1a c6 89 12 4b 47 40
       44.32919695358688 46.586503240328
0003f0 7f 61 ad 22 80 de 8c 40 56 28 b6 19 c5 7c e9 bf
       923.8125661416415 -0.7964807035616654
000400 8d 71 01 c9 a8 e7 db 3f 5c da dd 2a 94 2f b1 c0
       0.4360143626161282 -4399.578779092608
000410 24 d2 ee ea 1b 11 83 40 96 d1 20 63 76 19 55 40
       610.1386316926842 84.39785078244162
000420 02 57 5a 1c ac 84 56 40 46 78 7f d3 2e a3 89 40
       90.07300480673078 820.3978643377857
000430 6a 62 c7 81 1c 9c f4 bf 0b ff 03 e7 b2 75 d0 3f
       -1.2881131238447332 0.25718376693838313
000440 f9 ab 53 85 c3 9f b5 c0 3d ce 14 c7 65 22 7d 40
       -5535.763753156171 466.14984806182093
000450 f4 d0 58 a5 89 06 6e 40 5e 6a 57 13 73 6f 71 40
       240.2043024763767 278.9655946173351
000460 bb d8 eb 31 1f de 84 40 57 c3 6e bd b8 de 2f 40
       667.7652319360271 15.935003204127197
000470 0b 5f d7 c8 cd 5d ac bf c6 37 d0 30 72 3f b5 c0
       -0.055403166548499604 -5439.446057332627
000480 8c de c9 84 ee ee 7b 40 35 bf 20 4e 2f f5 83 40
       446.9332321057816 638.6480982359268
000490 1e 44 f4 7c 51 d1 87 40 20 77 6a 45 54 3c 84 40
       762.1647891124046 647.5411480252842
0004a0 97 1d 73 17 30 50 35 40 cc 4d bb 3f 7b 05 55 40
       21.313233819584266 84.08564751902958
0004b0 e3 f4 b4 12 b2 0e 5c 40 18 29 db 1c 6d cc 21 40
       112.22961871787588 8.899269963982576
0004c0 40 78 37 b8 ea 70 fd 3f 1f 20 a7 47 c7 2b 5b 40
       1.8400675960506447 108.68403807946059
0004d0 f0 3a 8d d5 31 53 22 40 a0 c5 24 b1 cc 66 00 40
       9.162489579668062 2.0501951064440647
0004e0 c8 45 a5 62 ad 1b 5c 40 b2 ef 33 ac d6 f7 23 40
       112.43245760097409 9.98405969747532
0004f0 44 9c 1b 94 bc a9 06 40 14 d4 cc ce 88 7e 32 c0
       2.832879216282466 -18.49427502155966
000500 1b 94 3d 0e 33 3c 25 40 93 c1 76 f7 f4 b2 11 40
       10.617577023522292 4.424762598632145
000510 ef 44 a6 91 7c 87 5c c0 66 2c d2 d2 e7 61 24 40
       -114.1169780849193 10.191221798091828
000520 2a 5b 09 50 a5 63 14 40 ae c2 0d 19 08 02 aa c0
       5.097310305186321 -3329.015816144957
000530 4a d2 87 b7 b3 93 72 40 2f c9 10 96 d5 76 46 40
       297.2313762002492 44.92839313335059
000540 cf 21 e6 38 e8 83 46 40 45 6a 2e 36 d0 7c 76 40
       45.03052436100881 359.80083292132286
000550 5a fe 63 9b a8 7f c3 bf 48 0d ba c0 db 2b f0 3f
       -0.1523333319419063 1.0107076195134415
000560 2a 7f 76 43 07 73 ab c0 8f dd 2e a0 c0 79 72 40
       -3513.5141865759115 295.6095277624781
000570 7d d4 9e 60 1f 67 51 40 09 6f 79 09 97 70 51 40
       69.61129012594934 69.75921856745494
000580 19 c5 75 c1 ba 61 76 40 d0 fa e4 4d 96 74 d2 bf
       358.1080946541202 -0.2883659134567269
000590 33 28 62 33 d6 e6 f4 3f 4c 2f 2d 31 c3 0d b1 c0
       1.306356621471889 -4365.762469123885
0005a0 51 2b 22 d1 9b 40 72 40 b7 37 d5 51 1a ce 52 40
       292.03804124209734 75.2203564245418
0005b0 9c 68 a0 a2 a5 dc 52 40 a2 92 c4 8d d8 24 76 40
       75.44760957398324 354.3028695753693
0005c0 36 35 b1 59 2b 7a f1 bf cf f6 9b 1a c1 ad b8 3f
       -1.0923264983751557 0.0964012803996994
0005d0 43 11 42 a2 a0 64 b5 c0 e7 82 f1 74 b4 0b 72 40
       -5476.627475861754 288.73155683842054
0005e0 89 2f 51 d5 2f 35 51 40 ca b7 5c 49 ce 5d 51 40
       68.83104451111116 69.46571573309407
0005f0 ad 9b db 0f ae e6 75 40 4a 7f ce c1 6e 33 24 c0
       350.4174955919687 -10.100454384286099
000600 68 58 f6 aa df 03 c3 bf e5 37 f4 39 bb 04 b5 c0
       -0.14855571601646322 -5380.731353057524
000610 86 f9 e1 85 78 13 72 40 71 72 76 99 5e 97 44 40
       289.21692455550544 41.18257444652125
000620 e5 c0 37 ea 35 e2 44 40 7a 11 76 79 6b ed 75 40
       41.767270352576624 350.83873888130586
000630 46 08 41 86 8e 80 20 c0 5e 89 4a c2 92 d4 cc 3f
       -8.251087375105396 0.22523722159264542
000640 93 a8 6a 2b c1 5f 48 c0 b8 c2 19 ee 51 45 3e 40
       -48.74808256824431 30.27078140381738
000650 76 a4 29 e8 f1 f5 13 40 47 cc 05 9e 84 da 49 c0
       4.990180614034321 -51.707172158080134
000660 b2 3a 20 c2 84 39 3f 40 38 4e c5 6a 6f 0d 19 40
       31.2246819809613 6.263120334904265
000670 6d a3 04 a3 9b 03 50 c0 f4 49 28 51 e4 10 39 40
       -64.05637431576697 25.065983841262963
000680 c9 f8 34 d0 3b 61 22 40 05 1f df 97 c2 29 54 c0
       9.189909464327132 -80.65250202931573
000690 16 cc 66 9f 52 fe 25 40 7c 51 9b b8 83 e2 2f 40
       10.996724110887993 15.942411202392343
0006a0 16 f1 eb 8a c1 d9 53 c0 f1 22 18 7c 34 c3 20 40
       -79.40243790665804 8.381259801813458
0006b0 fb 49 4d b0 8d 71 3c 40 26 ea c2 b3 c0 5f 48 c0
       28.443568247670537 -48.74806830422703
0006c0 2e 39 1d ec 51 45 3e 40 a6 23 f9 e7 f1 f5 13 40
       30.270781285414323 4.9901806112110645
0006d0 aa cc bc 32 b7 fc 13 40 43 c1 eb 77 3b 7e 40 40
       4.9967925956472445 32.986189832796775
0006e0 d9 44 27 39 98 74 b6 bf 66 9b d6 94 95 8c 22 3f
       -0.08771659274431744 0.00014151884026355615
0006f0 98 41 9a 60 84 da 49 c0 f5 31 0b c0 84 39 3f 40
       -51.70716483623545 31.22468185685462
000700 17 14 96 6a 6f 0d 19 40 0c 9e 7c 04 c3 16 19 40
       6.263120332155288 6.272228307825127
000710 16 64 0c c1 14 fb 40 40 4c 37 72 7d f6 da c6 bf
       33.961570864725374 -0.1785572159318981
000720 8f de cf 33 c8 bb 32 bf 6a 15 9f 9c 9b 03 50 c0
       -0.00028585088494945896 -64.05637279067528
000730 4e 77 01 50 e4 10 39 40 83 6f 1f d0 3b 61 22 40
       25.06598377261917 9.189909461819985
000740 26 fc d7 c2 03 71 22 40 0e 27 46 41 96 7f 3b 40
       9.220731819978095 27.49838645899495
000750 fb ac e4 98 ea 7b df bf bf 37 e5 82 c6 51 09 bf
       -0.4919382565592085 -4.82929902881758e-05
000760 98 82 77 97 c2 29 54 c0 d1 91 57 a9 57 fe 25 40
       -80.65250193282043 10.996762554111145
000770 96 b4 42 87 65 e2 2f 40 0d 2c a8 a5 db 40 30 40
       15.94218084992671 16.253351548726688
000780 55 43 5a e7 aa 53 2b 40 a0 36 fa 5a 84 ef db bf
       13.663413266914782 -0.4364939583254941
000790 22 b6 dc 83 61 46 37 3f 44 5a dc 8b c1 d9 53 c0
       0.0003551471780721423 -79.4024381305581
0007a0 bf bf a7 4b 47 f4 20 40 83 f9 d4 5d 1d 71 3c 40
       8.477106441714453 28.441854347701803
0007b0 d3 de bb de 63 7a 3d 40 a4 93 2b 6c 08 b2 26 40
       29.478086396090315 11.347720508880066
0007c0 42 41 d0 d0 c9 11 92 3f 97 47 44 fd 59 54 e0 3f
       0.017645982141460743 0.5102968165031027
0007d0 2b df b4 3d 86 26 06 40 8b ac 00 98 22 79 db 3f
       2.768810731966274 0.4292685017014228
0007e0 87 32 94 5b 61 1c bf 3f ca ba 83 84 6d 31 04 40
       0.12152679906666651 2.5241346695614526
0007f0 0e 67 be f7 2b 3a dc 3f ca 73 c3 71 0c cd c0 3f
       0.44105052179075777 0.13125758700235074

tails.0.w f4 [10, 4]
000000 8e e6 ab 3d 68 f5 0c 3e 64 5e 07 be c9 3b bc bd
       0.08393584 0.1376549 -0.13219601 -0.091910906
000010 dd 67 e0 3c 45 f1 e9 3d 9b bb 3b bd cb 5a c8 bc
       0.027393276 0.11422972 -0.04583321 -0.024457356
000020 70 c0 13 bd ed 85 29 3e 0a 47 89 bd 66 5c 3c ba
       -0.036072195 0.16554995 -0.06703003 -0.00071853993
000030 5c 89 8b 3d 8e d0 4a ba c7 01 da bd d3 7d 2a 3d
       0.068133086 -0.00077367655 -0.1064487 0.0416239
000040 b6 ff 06 3e eb 03 01 3e 95 b9 b1 bd b1 c2 97 bd
       0.13183483 0.12599151 -0.08677975 -0.07410181
000050 de a8 06 bd d3 bb 00 3e 55 86 a1 bd b8 ce ef bd
       -0.032875888 0.12571649 -0.0788695 -0.1170935
000060 27 2c d4 3b 9e cf 9e 3d 43 48 0e 3d 25 1e 05 bd
       0.00647499 0.077544436 0.034736883 -0.03249945
000070 c9 d0 0a 3e 62 b8 9b 3d 7d 2f aa bd 44 57 ee bd
       0.13556208 0.076035276 -0.08309839 -0.11637738
000080 b2 ff 56 3d 7d 87 1d 3e 86 3a ea bd ec f1 25 bc
       0.052489944 0.15383716 -0.11436944 -0.010128479
000090 c0 59 f4 3d e3 ea d3 3b 8b 95 d3 bc 29 ee f4 3c
       0.11931181 0.0064672097 -0.025828144 0.02989872

tails.0.hidden_bias f4 [4]
000000 97 20 2a be 8a 97 94 be 0d 18 57 3e 81 4c f2 3d
       -0.16613995 -0.29021865 0.21005268 0.11830998

tails.0.reconstruct_bias f4 [10]
000000 89 a5 13 bf 87 29 14 bf 34 17 14 bf 0a 6b 14 bf
       -0.5767446 -0.57875866 -0.57847905 -0.5797583
000010 e3 bb 13 bf 7a 0c 14 bf 16 89 14 bf 12 e0 13 bf
       -0.5770857 -0.5783154 -0.58021677 -0.5776378
000020 b0 d7 13 bf 87 7f 14 bf
       -0.5775099 -0.5800709

tails.1.w f4 [7, 2]
000000 74 02 75 bd 22 30 ea 3c 55 29 de 3d 2f f0 5f 3d
       -0.059816793 0.028587405 0.10847727 0.054672416
000010 c0 dc a8 3d 21 5e 5b bc 30 a0 d3 3d 43 e3 37 bd
       0.0824523 -0.013389141 0.10333288 -0.044894468
000020 b9 30 54 bd 21 00 d1 bd 5b b4 10 be ae cc dd bc
       -0.051804278 -0.10205103 -0.141313 -0.027075138
000030 8b b0 46 bc 63 26 3c 3d
       -0.012127052 0.045935046

tails.1.hidden_bias f4 [2]
000000 3b 75 b6 bc 3b e3 84 3d
       -0.022272697 0.06488653

tails.1.reconstruct_bias f4 [7]
000000 ef 76 fa be c1 cd a6 be 0a 21 4e bf 78 50 4e bf
       -0.48918864 -0.32578853 -0.80519164 -0.80591536
000010 ed 88 4e bf b3 97 4e bf c5 c1 4e bf
       -0.8067768 -0.80700225 -0.8076442

tails.2.w f4 [9, 3]
000000 d7 d8 32 3e 8e 3f bc be 8e b7 54 3e 14 84 78 3e
       0.1746553 -0.36767238 0.20773146 0.24269134
000010 3d 6c cb be a0 4f d5 3e c7 b6 ce 3e b6 b9 e5 be
       -0.39731017 0.41662312 0.40373823 -0.4486825
000020 5e fc dc 3e de d1 57 3e f6 1e b7 be d8 54 a5 3e
       0.4316129 0.21076152 -0.3576581 0.32291293
000030 22 0d 36 3e 95 09 a5 be c6 31 99 3e 6b 17 97 3e
       0.17778447 -0.32233873 0.29920787 0.29510054
000040 77 48 e6 be 10 7d d5 3e a5 ad 6e 3e b6 b0 e7 be
       -0.4497716 0.41696978 0.23308428 -0.45252007
000050 5d bd ef 3e 7b c9 c8 3e 43 bb 08 bf 24 03 8e 3e
       0.4682416 0.39216217 -0.5341074 0.2773677
000060 6e d5 ab 3e 56 91 03 bf f8 be de 3e
       0.3356127 -0.5139364 0.43505073

tails.2.hidden_bias f4 [3]
000000 da a6 b9 3c 5f f6 c0 3d 1e 44 13 bd
       0.022662569 0.094219916 -0.035953633

tails.2.reconstruct_bias f4 [9]
000000 cb 70 20 3e ca 1d 73 3e d2 42 40 3e f7 e5 e4 3d
       0.15668027 0.23741832 0.1877549 0.11176675
000010 5b 2e 1b 3e ba 2f 63 3e 50 39 63 3e 05 39 7b 3e
       0.15154402 0.22186175 0.22189832 0.2453347
000020 20 91 70 3e
       0.23492861

tails.3.w f4 [6, 2]
000000 d4 80 ce be d4 01 88 3e 6d 5d 04 be 81 e2 b7 3e
       -0.40332663 0.26563895 -0.12926264 0.35914996
000010 d1 9e ca be e6 b6 be 3e 4a ad bc be 42 6f c5 3d
       -0.39574292 0.37248915 -0.3685096 0.09640361
000020 1e 7c bf be 7d e3 8a 3e 51 fa 9a be f8 4d 9f 3e
       -0.3739938 0.27126685 -0.302691 0.31114173

tails.3.hidden_bias f4 [2]
000000 68 f8 54 3e 69 c4 06 be
       0.20797884 -0.13160862

tails.3.reconstruct_bias f4 [6]
000000 30 e3 ff bd d4 09 08 bd f2 f0 b7 bd 18 ff 6f bc
       -0.124945045 -0.033212498 -0.089815035 -0.014648221
000010 48 9b d6 bd b6 d2 c3 bd
       -0.10478836 -0.09561674

tails.4.w f4 [10, 4]
000000 41 96 e1 3d f2 27 30 bd 5a 41 39 3d 1f ed 94 3d
       0.11014987 -0.043006845 0.04522834 0.0727179
000010 ff a5 1e bd c7 1e d3 3c ca af 78 bd 7b 13 82 3d
       -0.038732525 0.025771512 -0.06071452 0.06351372
000020 69 7b 85 3d 4e 6d 9a bd b2 a9 fb bd 00 fd 59 3b
       0.06517679 -0.075403795 -0.12288226 0.0033262372
000030 4c 80 6b bd e3 0e 06 bd d9 dc d9 bd a9 51 a5 bd
       -0.0574954 -0.03272904 -0.106378265 -0.08072216
000040 5c 33 53 bd 8f 24 b5 bd 22 69 c3 bd e0 12 8b 3d
       -0.051562652 -0.088448636 -0.09541537 0.067907095
000050 50 f3 48 3d e4 db a9 bc 0e f3 ff bc f6 a0 a1 bd
       0.049060166 -0.020734735 -0.031243827 -0.07892029
000060 a0 fa 9a bd e2 b5 9c bd f9 67 71 3d 5f a8 c8 3d
       -0.07567334 -0.07651879 0.058937047 0.09797739
000070 bf e8 47 3d ed ea 80 3d 3f 44 cf bd 27 32 a5 bb
       0.04880595 0.062948085 -0.10120439 -0.005041379
000080 5f 5c 95 3d a2 38 a1 bd 8a a5 14 3c 26 59 88 3c
       0.07293009 -0.0787213 0.009072671 0.016644072
000090 d1 99 94 3d dd 7b e2 3c 89 84 b4 3b f4 12 66 bd
       0.07255901 0.027646953 0.0055089635 -0.05617042

tails.4.hidden_bias f4 [4]
000000 09 64 70 bd 7c d1 b7 3d df b9 f4 3d 6b f8 f8 bc
       -0.05868915 0.08975503 0.119495146 -0.030391892

tails.4.reconstruct_bias f4 [10]
000000 cb 72 14 bf 43 7a 14 bf 6f 3c 14 bf 8b 6a 14 bf
       -0.5798766 -0.57999057 -0.57904714 -0.5797507
000010 40 5d 14 bf 97 81 14 bf 3e 6f 14 bf d7 4f 14 bf
       -0.5795479 -0.5801024 -0.5798224 -0.57934326
000020 aa 7c 14 bf c4 9d 14 bf
       -0.5800272 -0.5805323

tails.5.w f4 [5, 2]
000000 07 51 94 bc e7 dc e5 3d c6 67 16 3d 75 4b 80 3d
       -0.018105043 0.112237744 0.03672006 0.06264392
000010 df d4 ba 3c 23 5c 64 bc 23 4f 48 3d c2 84 81 be
       0.022806583 -0.013937983 0.048903596 -0.252966
000020 21 37 36 be b8 c6 b9 bd
       -0.17794468 -0.09071106

tails.5.hidden_bias f4 [2]
000000 1a 27 66 3d 0d 16 c0 3d
       0.056189634 0.09379206

tails.5.reconstruct_bias f4 [5]
000000 3c 40 87 bf 13 ca c3 bd f7 88 8a bf 3a f2 89 bf
       -1.0566478 -0.09560027 -1.0823048 -1.0777047
000010 a6 1a 8a bf
       -1.0789382

tails.6.w f4 [9, 3]
000000 19 58 01 3d 69 ee 29 3e e0 1b 0e be 6c 68 1b 3d
       0.031578157 0.16594853 -0.13877821 0.03794138
000010 42 8f 8b 3d dd 97 a3 bd 78 b2 07 3e a7 a9 8e 3d
       0.06814434 -0.0798795 0.13251674 0.06965952
000020 13 d5 18 be 14 f6 1c 3e b2 f0 51 3e b1 3a 5b bd
       -0.14925031 0.15328246 0.20501974 -0.05352277
000030 6d 9f 2f bd 49 8d 32 3e 79 75 4c be fb f4 26 3e
       -0.04287665 0.17436709 -0.19966687 0.1630439
000040 db a9 d9 3d ce be 18 be 84 b9 91 3d c3 9d 34 3e
       0.106281005 -0.14916536 0.071154624 0.17638306
000050 3b 33 43 be c1 d5 09 3e a0 12 21 3e a7 ad 0a be
       -0.19062512 0.13460447 0.15729761 -0.13542806
000060 41 0d ae 3d 99 d8 31 3e 1c 07 22 be
       0.08498622 0.17367782 -0.15823025

tails.6.hidden_bias f4 [3]
000000 28 85 77 be 82 74 cd be ab 2c c7 3e
       -0.24171889 -0.4012795 0.38901266

tails.6.reconstruct_bias f4 [9]
000000 cd c5 22 bf d3 a8 23 bf f1 ec 22 bf 1f 98 22 bf
       -0.6358307 -0.6392948 -0.63642794 -0.6351337
000010 ea a2 22 bf 49 98 22 bf 7d 41 22 bf bf 77 22 bf
       -0.6352984 -0.6351362 -0.6338118 -0.6346397
000020 29 6a 22 bf
       -0.6344324

tails.7.w f4 [10, 4]
000000 00 8a ba 3d ea d7 9b 3d 07 c4 60 3d 85 9f 1b 3d
       0.09108353 0.07609542 0.054874446 0.037993927
000010 5f 94 b7 3d 0c d3 c2 3d 26 22 99 3c 5d 55 df bd
       0.089638464 0.0951291 0.018693041 -0.10904954
000020 51 97 ce 3d f0 51 94 bd 79 94 30 3c c3 66 96 bd
       0.10087455 -0.07242191 0.010777586 -0.07343819
000030 aa 05 23 bd 5e cc 61 3d 28 90 8f bd 07 58 c9 bc
       -0.039800324 0.05512654 -0.070099175 -0.024578108
000040 25 20 41 bd 50 48 45 bc ac fb e4 3c 6f 2a c9 bd
       -0.047149796 -0.012041166 0.027952038 -0.09822547
000050 0a e4 9f bd 73 68 94 3d cb 56 87 3d ed d2 68 bd
       -0.07807167 0.072464846 0.06608351 -0.05684178
000060 38 2d 41 3b 38 85 86 3d 38 2a 07 bd a6 f3 50 3d
       0.0029476415 0.06568378 -0.032999247 0.05101361
000070 99 4b 74 bd ec 7f 17 3d 07 57 7e 3c a6 a4 b1 3d
       -0.059642408 0.03698723 0.015523679 0.08673982
000080 a6 00 91 3d c2 ab f8 3d 42 67 c5 bd a7 ed 63 bc
       0.07080202 0.12142135 -0.096388355 -0.013911641
000090 bb 9c b5 bd 8c e9 0e bd cf e3 01 3c 95 02 87 3c
       -0.088677846 -0.034890696 0.007927849 0.016480723

tails.7.hidden_bias f4 [4]
000000 01 e4 43 bc cd 2f fd bd 90 7e 2b ba 4a 4c 63 3d
       -0.011956216 -0.12362633 -0.00065419916 0.055492677

tails.7.reconstruct_bias f4 [10]
000000 4c 83 14 bf 1b 64 14 bf 0a a5 14 bf 10 86 14 bf
       -0.58012843 -0.5796525 -0.5806433 -0.58017063
000010 bd 91 14 bf fb 62 14 bf 7b 74 14 bf 2b 79 14 bf
       -0.5803488 -0.5796353 -0.57990235 -0.5799739
000020 e8 00 14 bf 7d 48 14 bf
       -0.5781388 -0.5792311

tails.8.w f4 [4, 1]
000000 b7 ba b4 3e 07 58 ff 3e fb 85 df 3e 15 93 0d 3f
       0.35298702 0.49871847 0.43656906 0.55302554

tails.8.reconstruct_bias f4 [4]
000000 76 d0 a1 bf a6 fe 9e bf 13 39 a0 bf 07 f5 9d bf
       -1.2641742 -1.2421463 -1.2517418 -1.2340401

tails.9.w f4 [5, 2]
000000 ea b1 dd 3e 28 90 67 be 4f 84 d5 3e 5f ba d4 be
       0.432998 -0.22613585 0.41702506 -0.4154844
000010 d3 96 9f 3e 8c 42 ca be 5f 66 e4 3e e1 c8 c7 be
       0.31169757 -0.39503896 0.44609353 -0.39020446
000020 ec 18 93 3e eb 5c 90 be
       0.2872995 -0.2819589

tails.9.hidden_bias f4 [2]
000000 d0 5f 46 bf 5c a5 35 3f
       -0.7748995 0.70955443

tails.9.reconstruct_bias f4 [5]
000000 df 88 84 bf aa 34 82 bf a9 0b 84 bf 84 1e 82 bf
       -1.035427 -1.0172322 -1.0316058 -1.0165563
000010 99 e8 85 bf
       -1.0461608

tails.10.w f4 [6, 2]
000000 2f a4 bb 3c 77 66 0c be cd 5b 0f bc 5f 58 06 3e
       0.022905437 -0.13710962 -0.008749914 0.13119648
000010 a2 3e 97 3c ad ef d0 bd 8d f3 c8 bd e1 21 0f bd
       0.018462483 -0.102019645 -0.098120786 -0.03494442
000020 0d 03 d6 bd 3a b2 b4 3d 6e 76 a1 3d f2 f3 43 3d
       -0.10449801 0.088230565 0.07883917 0.047840066

tails.10.hidden_bias f4 [2]
000000 1b 91 22 3d eb 23 52 3b
       0.039689165 0.0032064866

tails.10.reconstruct_bias f4 [6]
000000 97 c0 6c bf 4e bd 6c bf 6f 66 6c bf 0e 4c 6c bf
       -0.9248137 -0.92476356 -0.923438 -0.9230355
000010 c4 4c 6c bf a4 77 6c bf
       -0.92304635 -0.9237006

tails.11.w f4 [6, 2]
000000 e4 67 38 3e 1e 0e 51 3e 45 46 b2 3c ee 16 ba 3d
       0.18008381 0.20415542 0.021762023 0.09086405
000010 3f 8d 03 3e c2 d9 c7 bd 82 3d a1 3e 2f 55 db 3d
       0.1284685 -0.09758331 0.3149224 0.10709607
000020 4e 9f 9e 3e 5d 17 93 ba 12 90 5c 3e 6e 9a 21 3e
       0.30980915 -0.0011222173 0.21539333 0.15781567

tails.11.hidden_bias f4 [2]
000000 62 93 e7 be 04 8d 3b be
       -0.45229632 -0.18315512

tails.11.reconstruct_bias f4 [6]
000000 a7 47 68 bf d8 6f 6b bf b1 0b 6b bf 06 9a 69 bf
       -0.9073433 -0.91967535 -0.91814715 -0.91250646
000010 57 33 6a bf c2 92 6a bf
       -0.9148459 -0.91630185

tails.12.w f4 [5, 2]
000000 f2 a9 02 be c9 43 fc 3e 0a b9 ac bd 60 90 78 bb
       -0.12760141 0.49270466 -0.08433731 -0.003792785
000010 32 73 ba bd 23 5e cd be ae ce 2f bc 33 0e 5c 3e
       -0.09104003 -0.40110883 -0.010730429 0.21489792
000020 81 3d 0c 3e 69 d1 48 3e
       0.13695337 0.19611134

tails.12.hidden_bias f4 [2]
000000 16 96 c2 3d 84 2b 98 3e
       0.09501283 0.297207

tails.12.reconstruct_bias f4 [5]
000000 02 20 04 3f 78 93 c5 be c8 bd 4d bf 88 53 a2 bd
       0.5161134 -0.38589072 -0.8036771 -0.079260886
000010 08 09 54 3e
       0.2070657

tails.13.w f4 [4, 1]
000000 71 48 ec be ef 0d af be 48 b4 c2 be 95 62 cf bc
       -0.46149018 -0.34190318 -0.3802817 -0.025315562

tails.13.reconstruct_bias f4 [4]
000000 1e 84 c8 3e 4c a0 87 3e fb 3a b8 3e c8 b3 b0 bd
       0.39163297 0.26489484 0.359825 -0.086280406

tails.14.w f4 [4, 1]
000000 32 83 d4 3b ec fb ea 3d 98 95 33 be 76 46 f4 3c
       0.0064853663 0.114738315 -0.17537534 0.029818755

tails.14.reconstruct_bias f4 [4]
000000 eb 1c ac be eb 0f c8 be c3 05 9c 3d d8 b8 65 3f
       -0.33615813 -0.39074644 0.076182865 0.89735174

head.w f4 [15, 6]
000000 d6 72 42 bc ce 2f 78 3d 22 40 54 3a 86 ad 8d 3d
       -0.011868199 0.060592465 0.0008096715 0.069178626
000010 4a b3 e9 3c f5 d7 82 3d e8 77 65 bc f6 63 cf ba
       0.028527874 0.06388847 -0.014005639 -0.0015822637
000020 24 66 78 3d fb e3 12 bd 8f e2 36 bd 2b f5 8d 39
       0.060644284 -0.03586195 -0.044649657 0.0002707628
000030 5e de cc 3c e8 58 67 3d 17 5f 21 bd ed 62 4a bd
       0.025008377 0.056481272 -0.039397325 -0.04941075
000040 67 ae 6a 3c 66 8e 8d 3d 4a 15 ff 3c c3 4a 87 bd
       0.014323807 0.06911926 0.031138081 -0.066060565
000050 c7 4b 3b 3d ec a9 4f 3d 2c 69 b8 bc f7 02 db 3c
       0.045726564 0.05069916 -0.022511087 0.026734812
000060 71 88 1e 3d 2d a4 71 3d e5 65 c8 3c a2 d3 ac bb
       0.03870434 0.05899446 0.02446265 -0.005274252
000070 d0 0f 4e bd a6 26 bb bc ea e6 a6 3c 36 37 08 3b
       -0.05030805 -0.022845577 0.02037378 0.0020784861
000080 3f 40 48 bd b4 e2 57 bd 72 2c 81 bc 44 6d 3d bc
       -0.048889395 -0.052706435 -0.015768263 -0.0115616955
000090 0b 41 a4 bc 82 d3 86 bd 2d f5 7c 3c 9f 21 09 bc
       -0.020050546 -0.06583311 0.015439314 -0.008369832
0000a0 3a 23 a3 3b ae 5b f6 bc 18 d9 92 3c e4 71 f2 bc
       0.0049785646 -0.030073013 0.017925784 -0.029595323
0000b0 b5 a2 c8 bb 39 61 6c 3d 60 f8 e9 3c 9f bb 88 3c
       -0.006122912 0.057709906 0.028560817 0.016691027
0000c0 d7 1c 02 bc 14 0e 6a 3d ec e6 96 3c 9b 18 8f bb
       -0.007941446 0.057142332 0.018420659 -0.004366947
0000d0 78 58 e0 3c 3c e8 34 bd d3 bf 64 bd cf b8 4a bd
       0.027385935 -0.04416679 -0.055847 -0.049492653
0000e0 51 df 40 3c 59 59 12 bd 8e b8 a9 3c 39 2d 59 bc
       0.011771993 -0.03572974 0.020717885 -0.013255411
0000f0 2b 43 8a bd 4f f1 06 bd 52 ff 2d bc ac d6 0c bb
       -0.067510925 -0.032944974 -0.010619955 -0.002149026
000100 bb 7b 4d bd 81 79 7a bd 28 80 0a 3d cb de d9 bc
       -0.050166827 -0.06115103 0.033813626 -0.026595494
000110 7f 47 04 bd 89 c2 1a bd 81 d9 08 bb 82 b5 0a 3c
       -0.032294746 -0.03778318 -0.0020881596 0.008466126
000120 74 1b 8f bc 1c 9d 98 3c 3d 27 5c 3d b7 95 f8 3b
       -0.017469145 0.018629603 0.053748358 0.007586207
000130 1b 49 3c 3d c8 9d 09 bd 35 1d d7 3b 31 29 1b 3d
       0.045968156 -0.033597738 0.006564761 0.03788108
000140 5a 3a 15 ba 7a f6 02 bd 20 27 ea 3c 81 4a 2f ba
       -0.0005692594 -0.03197334 0.02858311 -0.0006686822
000150 cb 9d 86 3d 9f 10 33 3d 3a 1c 5c bd 8d 08 18 bc
       0.06573065 0.043717023 -0.053737856 -0.009279382
000160 09 63 69 bd f5 ce 24 3b
       -0.056979213 0.002514777

head.hidden_bias f4 [6]
000000 16 ec 4d bc 41 ff 93 bc 6d a1 6d bc 6d de cf 3c
       -0.012568494 -0.01806605 -0.014503819 0.025374616
000010 94 f3 ac 3c b1 89 81 3c
       0.02111224 0.015812727

head.reconstruct_bias f4 [15]
000000 72 d0 c6 be 92 23 c9 be b5 9c a9 be 79 d9 af be
       -0.38830906 -0.3928495 -0.3312737 -0.34345606
000010 e4 d6 c8 be 65 24 c9 be 32 bf c8 be 89 2e c9 be
       -0.3922645 -0.3928558 -0.3920837 -0.39293316
000020 3f 22 c9 be a2 2c c9 be 11 2a c9 be ca 23 c9 be
       -0.3928394 -0.39291865 -0.39289907 -0.39285117
000030 6a 28 c9 be 1d 25 c9 be 7f 24 c9 be
       -0.39288646 -0.39286128 -0.39285657
